system_ext/etc/csd_model.tflite (tflite, 928392 bytes, 49 tensors)

model/speech2_bn/batchnorm/mul_1;model/tf.expand_dims/ExpandDims;model/tf.expand_dims_2/ExpandDims;model/speech2_bn/batchnorm/mul f4 [128, 192]
0	0xbda02626	-0.07819776
1	0x3df5e10e	0.120058164
2	0x3d1a23b9	0.037631724
3	0xbc71a4c9	-0.0147487605
4	0x3c87b5ea	0.016566236
5	0xbdb3f16e	-0.087862834
6	0x3c368ae8	0.011141516
7	0xbccadd1d	-0.024763638
8	0xbc259933	-0.010107326
9	0x3d829703	0.063764594
10	0xbe813544	-0.2523595
11	0x3d924b6b	0.07143291
12	0xbcdeba7a	-0.027188528
13	0x3e32b2d6	0.17451033
14	0xbc2500f7	-0.010071031
15	0x3d9da5c9	0.07697637
16	0x3be29f0a	0.0069159316
17	0xbe069505	-0.13142784
18	0xbd87b5c5	-0.06626467
19	0xbc5b24dc	-0.013375487
20	0x3d49b799	0.049247358
21	0x3d97d7ab	0.07414182
22	0x3d8d61ea	0.06903441
23	0x3d14b8b9	0.036308978
24	0xbe099aea	-0.13438001
25	0x3d3d3144	0.04618956
26	0x3db0e1b5	0.086368
27	0xbd402016	-0.0469056
28	0xbc9ed33a	-0.01938783
29	0x3df97fbe	0.12182568
30	0xbdd8606f	-0.10565268
31	0x3d9f9f4f	0.077940576
32	0x3d549fbc	0.051910147
33	0xbd28e3a0	-0.041232705
34	0x3d6106f7	0.054938283
35	0x3bf296d5	0.0074032345
36	0x3d0e31b3	0.034715366
37	0x3d3079d4	0.043084934
38	0xbddc9fab	-0.10772642
39	0xbda2197a	-0.079150155
40	0x3b7dc595	0.0038722504
41	0x3c06ff40	0.008239567
42	0x3d47eec4	0.04881169
43	0xbcfbadfe	-0.030722614
44	0xbcacc04f	-0.021087794
45	0xbdad1bed	-0.08452592
46	0xbd32b495	-0.043629248
47	0x3e0d0836	0.13772663
48	0x3c9b5389	0.018960731
49	0x3d702acd	0.058634568
50	0x3ddb31eb	0.107028805
51	0xbc3dce1a	-0.011584783
52	0xbcfa3903	-0.030544763
53	0x3e19a8f5	0.15005858
54	0xbd70a8af	-0.05875462
55	0x3cafab9c	0.021444134
56	0x3cb5b346	0.02218021
57	0x3dcad9c9	0.099048205
58	0xb98e49b7	-0.00027139272
59	0x3ca58757	0.020206137
60	0xbc778799	-0.015108013
61	0xbcc9175a	-0.024547268
62	0xbc9179be	-0.017758247
63	0xbc315d3c	-0.010825451
64	0xbd20f56a	-0.039296545
65	0xbda16efd	-0.078824975
66	0xbd63599b	-0.055505376
67	0x3dacf00d	0.084442236
68	0xbd5cd16a	-0.05391065
69	0x3d408e95	0.047010977
70	0xbd19470c	-0.03742127
71	0xbacd0926	-0.0015642985
72	0xbd69d4c3	-0.05708767
73	0x3c7957e0	0.015218705
74	0x3da4d46b	0.08048328
75	0xbc0635fe	-0.008191584
76	0xbda3eb4d	-0.080038644
77	0xbd2d051d	-0.042241205
78	0xbd77a8f3	-0.060463857
79	0xbda2e406	-0.07953648
80	0xbc731173	-0.014835703
81	0xbce5f05c	-0.028068714
82	0xbe023c94	-0.12718421
83	0x3c4ea29b	0.01261201
84	0xbd5dd019	-0.054153536
85	0xbcd334a1	-0.025781931
86	0xbc89b6a0	-0.016810715
87	0xbc87b186	-0.016564142
88	0x3ca5ecff	0.02025461
89	0xbd15d407	-0.03657916
90	0xbdbac288	-0.09119135
91	0xbc2ccbbb	-0.01054662
92	0xbdba9b47	-0.09111648
93	0x3d2ae7aa	0.04172484
94	0x3d3fffd7	0.046874847
95	0xbd04b133	-0.032395553
96	0xbd94a5e0	-0.07258201
97	0x3daa596d	0.08317838
98	0xbda04077	-0.07824796
99	0x3c9b36fd	0.018947119
100	0xbd07d8c3	-0.033165704
101	0x3dd9708c	0.1061717
102	0xbc971703	-0.01844359
103	0xbd6f072b	-0.058356445
104	0x3d423fcb	0.04742412
105	0x3a16cede	0.00057528715
106	0x3d1a0e4f	0.037611302
107	0xbbf99c5f	-0.007617518
108	0xbd06d3fc	-0.032917008
109	0x3d62852f	0.055302795
110	0xbd3e61a3	-0.046479832
111	0x3cdbfbf0	0.026853532
112	0x3cc36e55	0.023856321
113	0x3b6a136b	0.003571714
114	0x3b7f155a	0.0038922639
115	0x3cc65a2e	0.024212923
116	0x3ba88b08	0.005143527
117	0xbd5cfd92	-0.05395276
118	0xbd4a5466	-0.049396895
119	0x3d353870	0.044243276
120	0x3d952a13	0.07283416
121	0x3d4e80d0	0.050415814
122	0xbc8d8d10	-0.017279178
123	0xbcb03026	-0.021507334
124	0x3dcf971a	0.10136242
125	0x3d1976e2	0.03746689
126	0xbcd8a7d9	-0.026447223
127	0xbd7ee786	-0.062232517
128	0xbd039d30	-0.032132328
129	0xbecd174e	-0.40056843
130	0xbdfcf4a3	-0.12351348
131	0x3cadf9c9	0.02123727
132	0xbd210719	-0.03931341
133	0xbe13c478	-0.14430416
134	0x3f9322f1	1.1495038
135	0x3e3fd1ce	0.18732378
136	0xbf2b8608	-0.6700139
137	0xbec230c2	-0.37927824
138	0x3e316b64	0.17326123
139	0xbd2413a3	-0.04005779
140	0x3eb19349	0.34682682
141	0x3ddfe548	0.10932404
142	0xbf4cc80f	-0.79992765
143	0x3ee775a8	0.45206952
144	0xbf3b3fda	-0.73144305
145	0x3e60b504	0.21944052
146	0x3c1f9d32	0.009742068
147	0xbe4ba79b	-0.19888155
148	0xbdf0ed45	-0.117640056
149	0xbe1d7064	-0.15374905
150	0x3eb72cfe	0.35776514
151	0x3eb18e8a	0.3467906
152	0xbf68d812	-0.909547
153	0x3d94ca4b	0.07265147
154	0x3cce4b27	0.02518232
155	0xbdd4dabd	-0.103932835
156	0x3f2ff1a2	0.6872808
157	0x3d0ba0ec	0.034089014
158	0x3ef71958	0.48261523
159	0xbe44c314	-0.19215041
160	0x3ecd4cf0	0.4009776
161	0xbd28fbf3	-0.041255902
162	0xbe21b1aa	-0.1579043
163	0xbdd28685	-0.10279564
164	0x3e938cdd	0.28818408
165	0x3e14b328	0.14521468
166	0xbfa047a0	-1.2521858
167	0x3eb37c01	0.35055545
168	0x3f0dd3e1	0.55401427
169	0x3eabf312	0.33583885
170	0x3d3247d3	0.04352553
171	0xbf0fda99	-0.5619293
172	0xbc54889d	-0.012972024
173	0x3d2507ae	0.040290527
174	0xbeb6f541	-0.3573399
175	0xbeef6019	-0.46753004
176	0x3e41170f	0.18856452
177	0x3e93a788	0.28838754
178	0x3d63ba3a	0.05559752
179	0xbe8c616a	-0.2741807
180	0xbc460aa6	-0.0120875
181	0x3ebce847	0.36895964
182	0xbd0a8371	-0.03381676
183	0x3ef7cf50	0.48400354
184	0xbe66b68d	-0.22530575
185	0x3e7df54a	0.24800602
186	0xbe8d9eeb	-0.27660307
187	0xbf76d853	-0.96423835
188	0x3edfe5e8	0.43730092
189	0xbf18d38f	-0.5969781
190	0xbe4c5552	-0.19954422
191	0xbf1a9c4c	-0.6039474
192	0xbe512d1b	-0.20427363
193	0x3dbff9fc	0.093738526
194	0x3f2d7461	0.67755705
195	0x3eb8022a	0.3593915
196	0xbf0e3da3	-0.555628
197	0x3efb8db8	0.4913156
198	0x3c8ac64b	0.016940257
199	0x3e567b73	0.2094553
200	0xbed6b747	-0.41936705
201	0xbece2fc4	-0.40270817
202	0x3d65cd7a	0.05610416
203	0x3ea8d6b6	0.3297631
204	0xbddeeb07	-0.10884672
205	0xbc25476f	-0.010087832
206	0x3e9a78e8	0.3017037
207	0xbd890893	-0.066910885
208	0x3cae7853	0.02129761
209	0xbe11ae05	-0.1422654
210	0xbd6ea410	-0.05826193
211	0x3dc77c6d	0.09740529
212	0xbe5dddc2	-0.21666625
213	0xbce2b3b0	-0.027673572
214	0xbe3878ea	-0.18014875
215	0x3da0621b	0.07831212
216	0xb9fae4ed	-0.0004785428
217	0x3cd50de3	0.026007598
218	0x3d03e177	0.032197442
219	0xbd9be6cf	-0.076123826
220	0x3e00e4c2	0.12587264
221	0x3d3250dd	0.04353415
222	0xbd3199d9	-0.04335961
223	0xbe3b5640	-0.1829462
224	0x3df1648a	0.117867544
225	0xbd30c258	-0.04315409
226	0xbd2f30dc	-0.042771205
227	0xbc7afc03	-0.015318873
228	0xbdb40c95	-0.08791462
229	0x3db0e629	0.086376496
230	0x3d4237b4	0.047416404
231	0x3c1222c0	0.008919418
232	0x3e479b7f	0.19492911
233	0x3d74f24a	0.059801377
234	0xbd8e66f7	-0.06953233
235	0xbd3c027f	-0.045900818
236	0xbe1726e9	-0.14760937
237	0xbe0c5842	-0.13705543
238	0xbd358764	-0.04431857
239	0x3ccc0207	0.02490331
240	0x3cbcf06f	0.023063866
241	0x3b9c01ed	0.0047609718
242	0x3d27b08a	0.040939845
243	0xbc1a2d41	-0.009410203
244	0xbcab86f0	-0.020938367
245	0xbd1aed68	-0.037824064
246	0x3cc7f87f	0.024410484
247	0x3dddd6a4	0.10831955
248	0xbd85c40a	-0.06531532
249	0xbd91f87d	-0.071274735
250	0xbd218fab	-0.039443653
251	0xbe01a663	-0.12661128
252	0x3c3e18d1	0.011602596
253	0x3d1a428b	0.037661117
254	0xbda2a72b	-0.07942041
255	0x3cfeddf3	0.031111693

model/lstm1/TensorArrayV2_1 f4 [1, 1, 64]
0	0x00000000	0.0
1	0x00000000	0.0
2	0x00000000	0.0
3	0x00000000	0.0
4	0x00000000	0.0
5	0x00000000	0.0
6	0x00000000	0.0
7	0x00000000	0.0
8	0x00000000	0.0
9	0x00000000	0.0
10	0x00000000	0.0
11	0x00000000	0.0
12	0x00000000	0.0
13	0x00000000	0.0
14	0x00000000	0.0
15	0x00000000	0.0
16	0x00000000	0.0
17	0x00000000	0.0
18	0x00000000	0.0
19	0x00000000	0.0
20	0x00000000	0.0
21	0x00000000	0.0
22	0x00000000	0.0
23	0x00000000	0.0
24	0x00000000	0.0
25	0x00000000	0.0
26	0x00000000	0.0
27	0x00000000	0.0
28	0x00000000	0.0
29	0x00000000	0.0
30	0x00000000	0.0
31	0x00000000	0.0
32	0x00000000	0.0
33	0x00000000	0.0
34	0x00000000	0.0
35	0x00000000	0.0
36	0x00000000	0.0
37	0x00000000	0.0
38	0x00000000	0.0
39	0x00000000	0.0
40	0x00000000	0.0
41	0x00000000	0.0
42	0x00000000	0.0
43	0x00000000	0.0
44	0x00000000	0.0
45	0x00000000	0.0
46	0x00000000	0.0
47	0x00000000	0.0
48	0x00000000	0.0
49	0x00000000	0.0
50	0x00000000	0.0
51	0x00000000	0.0
52	0x00000000	0.0
53	0x00000000	0.0
54	0x00000000	0.0
55	0x00000000	0.0
56	0x00000000	0.0
57	0x00000000	0.0
58	0x00000000	0.0
59	0x00000000	0.0
60	0x00000000	0.0
61	0x00000000	0.0
62	0x00000000	0.0
63	0x00000000	0.0

model/lstm1/stacked_rnn_cells/lstm_cell/BiasAdd/ReadVariableOp/resource f4 [256]
0	0xbe166ae2	-0.1468921
1	0x3e5a038d	0.21290417
2	0x3dc1f263	0.0947006
3	0x3e87ba49	0.26509312
4	0xbe2fde9f	-0.17174767
5	0x3e590533	0.2119339
6	0x3ecfe407	0.4060366
7	0x3d2fb65c	0.04289852
8	0xbe819275	-0.2530705
9	0xbde163a7	-0.11005335
10	0x3e6abb82	0.22923091
11	0xbf5120b0	-0.816905
12	0x3e9da318	0.30788493
13	0x3e9907a2	0.29888636
14	0x3e479583	0.19490628
15	0x3ec64446	0.38723963
16	0xbf72f268	-0.9490113
17	0xbf124580	-0.571373
18	0x3d240ecb	0.04005317
19	0xbf11f863	-0.57019633
20	0xbf35b428	-0.7097802
21	0xbeb495b2	-0.35270458
22	0xbeac483e	-0.33648866
23	0x3d2173a7	0.039416935
24	0x3e3b482c	0.1828925
25	0x3e9a4064	0.3012725
26	0x3dcd57e0	0.100265265
27	0x3c392870	0.011301145
28	0xbf52d2a3	-0.82352656
29	0xbdd807c6	-0.10548358
30	0xbe915d33	-0.28391418
31	0xbe1d9c3c	-0.1539163
32	0xbf04ec7b	-0.5192334
33	0xbe96b512	-0.2943502
34	0x3edea550	0.43485498
35	0xbe429335	-0.19001468
36	0xbe551e19	-0.20812263
37	0xbe466d16	-0.1937755
38	0x3eaff0fb	0.3436354
39	0xbd6b7333	-0.05748291
40	0xbe511a85	-0.20420273
41	0x3cfd3bfc	0.030912392
42	0xbe91fac4	-0.2851163
43	0xbeade31c	-0.33962333
44	0xbe499874	-0.19687063
45	0x3deb78a2	0.11497618
46	0x3d04b249	0.03239659
47	0x3dcb8741	0.09937907
48	0x3de09f4d	0.10967884
49	0x3e5aa88a	0.21353355
50	0xbe625302	-0.22101977
51	0xbe804ae1	-0.25057128
52	0x3e34a475	0.1764086
53	0xbe22f681	-0.15914346
54	0x3e9d2032	0.30688626
55	0xbe2a78eb	-0.16647689
56	0x3e94a7bc	0.2903422
57	0xbe41770c	-0.18893069
58	0xbe9305cc	-0.2871536
59	0x3e9dda7a	0.30830747
60	0xbdad511e	-0.084627375
61	0x3dd1e545	0.10248808
62	0x3ee57f84	0.4482385
63	0x3e2761d8	0.16345918
64	0xbdafe944	-0.08589414
65	0xbeb4a4c8	-0.35281968
66	0x3e23c3bb	0.15992634
67	0xbddc5b04	-0.10759547
68	0x3e49b902	0.19699481
69	0xbd140f59	-0.03614745
70	0x3cb3703d	0.021904105
71	0x3f3598e7	0.70936435
72	0x3e30ba36	0.17258534
73	0xbe48b099	-0.19598617
74	0xbedd2524	-0.431924
75	0x3f856194	1.0420403
76	0xbe1403de	-0.144546
77	0x3ee3a721	0.44463447
78	0xbc67b700	-0.014142752
79	0xbe11f07a	-0.14251891
80	0x3f838a6d	1.0276619
81	0x3f645170	0.89186764
82	0xbe141c9a	-0.14464036
83	0x3f8291ec	1.0200782
84	0x3ef7392f	0.48285815
85	0x3f57b0e0	0.84254265
86	0x3eab0ce6	0.33408278
87	0x3e307602	0.17232516
88	0x3df0a650	0.117504716
89	0x3d98fba4	0.07469872
90	0xbe3982b0	-0.1811626
91	0xbcbd9a8c	-0.023144983
92	0x3f4bc2d6	0.7959417
93	0x3bc0ac90	0.005879946
94	0x3e0066f8	0.1253928
95	0x3f23a9ae	0.63930786
96	0x3f07504c	0.528569
97	0xbda83366	-0.082129285
98	0x3e6f143e	0.23347566
99	0x3e1d5369	0.1536385
100	0xbe2b9eab	-0.16759746
101	0xbe5b1d24	-0.21397835
102	0xbd7ddbe0	-0.061977267
103	0x3c3507e8	0.011049248
104	0x3ec2c53a	0.38041097
105	0x3dc860ae	0.09784065
106	0x3f36e753	0.7144672
107	0x3f03773c	0.5135381
108	0x3e0bede4	0.13664967
109	0x3e8b6260	0.27223492
110	0x3e21d9e9	0.15805782
111	0x3e6fa7f8	0.23403919
112	0xbe2ad1ac	-0.16681546
113	0xbe539280	-0.20661354
114	0xbe0acf44	-0.13555628
115	0x3f2d6967	0.67738956
116	0xbe6f4cce	-0.23369142
117	0x3e97b819	0.29632643
118	0xbe1fb836	-0.15597615
119	0x3e8e4f33	0.277948
120	0x3e266d2c	0.16252583
121	0x3e96b0db	0.29431805
122	0x3e9188a3	0.28424558
123	0x3dc9d5f9	0.09855265
124	0xbeadbe94	-0.33934462
125	0x3d864df1	0.06557835
126	0x3e59ef0a	0.21282592
127	0xbe015f60	-0.12634039
128	0xbe654150	-0.22388196
129	0xbd98f57a	-0.07468696
130	0xbe0b27c2	-0.13589385
131	0x3e89e8a6	0.2693531
132	0x3e019e5e	0.12658069
133	0xbe1a8068	-0.15088046
134	0xbd775714	-0.06038578
135	0xbe2f913c	-0.17145246
136	0x3e9db24e	0.30800098
137	0x3d8215d3	0.06351819
138	0x3e940460	0.28909588
139	0x3cebc24e	0.028779175
140	0x3eae91b6	0.34095544
141	0x3eb87e1a	0.36033708
142	0xbe3daad3	-0.18522196
143	0xbd76ca1a	-0.060251333
144	0x3dfc75b1	0.12327135
145	0xbe0ca456	-0.13734564
146	0x3e6d896c	0.23196954
147	0xbd89c538	-0.067270696
148	0x3d17ff41	0.037108663
149	0xbdcc7af4	-0.09984389
150	0x3e9497af	0.29021975
151	0x3a9c3de4	0.00119203
152	0x3e42f98b	0.19040506
153	0x3ef2b447	0.47403166
154	0xbda16c5c	-0.07881996
155	0x3ad796b0	0.0016448107
156	0xbde6a9cf	-0.11262857
157	0x3e6fc816	0.2341617
158	0x3e469e2b	0.19396274
159	0xbd9e2aa4	-0.07722977
160	0x3e1167a2	0.14199689
161	0x3c56ae90	0.013103142
162	0xbed6925d	-0.4190854
163	0xbda2b558	-0.07944745
164	0x3eabe148	0.33570313
165	0x3d2d475b	0.042304378
166	0x3ece137d	0.40249243
167	0x3cd92498	0.026506707
168	0xbe3d056e	-0.18459103
169	0x3eac0581	0.3359795
170	0xbe20137e	-0.15632436
171	0xbe1b6514	-0.15175277
172	0x3e0a28a7	0.1349207
173	0xbcb4d6b8	-0.022075042
174	0x3ccb79ec	0.02483841
175	0xbeb747fc	-0.35797107
176	0x3c914ba1	0.017736258
177	0x3e37b2c0	0.17939281
178	0x3ca6fa8b	0.02038314
179	0xbd9f4561	-0.07776905
180	0xbe6290ef	-0.221256
181	0x3d3cf7a4	0.046134606
182	0x3ee5ac65	0.4485809
183	0xbe5f4a74	-0.21805745
184	0xbeeb9a34	-0.46016085
185	0xbdeff568	-0.117167294
186	0xbe91f773	-0.285091
187	0xbed71b22	-0.42012888
188	0xbd90671a	-0.07050915
189	0x3ef943b8	0.48684478
190	0xbda853ac	-0.08219084
191	0x3e531079	0.20611753
192	0xbd43bee3	-0.047789466
193	0x3dab513e	0.08365105
194	0x3df8fca1	0.1215756
195	0x3eb09260	0.34486675
196	0x3e88ecc8	0.2674315
197	0x3e83a5b5	0.25712362
198	0x3ecc4ebe	0.39903826
199	0x3ee22712	0.44170433
200	0xbdb94c54	-0.090477616
201	0xbe3d0270	-0.18457961
202	0x3eb9821e	0.36232084
203	0x3e990aac	0.29890954
204	0x3e873819	0.26409987
205	0x3e0431eb	0.12909667
206	0x3ea42645	0.32060447
207	0x3da9f131	0.08297957
208	0x3f65fd5c	0.8983972
209	0x3e1d5a3f	0.15366457
210	0x3d2a26cc	0.041540906
211	0x3eb26812	0.34845024
212	0x3ea6e5d4	0.3259722
213	0xbb54a020	-0.0032444075
214	0x3e5ac2d7	0.21363388
215	0x3e5e0858	0.2168287
216	0x3e928475	0.28616682
217	0x3d4c949e	0.04994642
218	0x3e31b7c0	0.17355251
219	0x3e4a1120	0.19733095
220	0xbe44c1c7	-0.19214545
221	0x3eb67ce8	0.3564217
222	0x3e1add7c	0.15123552
223	0x3e371aac	0.17881268
224	0x3ef2cef0	0.47423506
225	0x3d31b462	0.043384917
226	0x3e068f5e	0.13140628
227	0x3d817355	0.06320826
228	0x3d5e4560	0.05426538
229	0xbd162d72	-0.036664434
230	0x3e56a903	0.2096291
231	0x3e71b60e	0.23604605
232	0xbe2ad62c	-0.16683263
233	0x3efefdc2	0.49802977
234	0x3e5b2299	0.21399917
235	0x3d9500e1	0.07275558
236	0xbe4225f0	-0.18959785
237	0x3eb74ff2	0.3580318
238	0x3ec932f2	0.3929668
239	0x3e3fc7b4	0.18728524
240	0x3d4e9e54	0.050443962
241	0x3d495c4b	0.049160283
242	0x3e8a57f8	0.2702024
243	0x3e6041c6	0.2190009
244	0x3e949f70	0.2902789
245	0x3c7631e0	0.01502654
246	0x3dbf7ebb	0.09350344
247	0x3dc23121	0.09482027
248	0x3ede3f86	0.4340784
249	0x3eac958c	0.33707845
250	0xbe80fec7	-0.2519438
251	0x3e7b964b	0.24569051
252	0x3e050318	0.12989461
253	0x3e70fd1e	0.23534057
254	0x3e8efc38	0.27926803
255	0x3e3a57ca	0.18197551

model/lstm2/stacked_rnn_cells_1/lstm_cell_1/BiasAdd/ReadVariableOp/resource f4 [256]
0	0x3eb743d6	0.35793942
1	0x3ea12fba	0.31481725
2	0xbe094dae	-0.13408539
3	0xbf143e98	-0.5790801
4	0xbe3e8de3	-0.18608813
5	0xbebe51b7	-0.37171718
6	0x3d13c0a0	0.036072373
7	0x3cdf961e	0.027293261
8	0x3f2490bc	0.6428335
9	0x3d27e471	0.040989343
10	0x3ec79653	0.38981876
11	0xbeeeb57c	-0.46622837
12	0x3cdc1844	0.02686704
13	0xbe5239a6	-0.20529804
14	0xbce17653	-0.027522242
15	0xbefad351	-0.48989347
16	0x3dc2c302	0.09509851
17	0xba265c00	-0.00063461065
18	0x3d105933	0.035241317
19	0xbf42bcc6	-0.76069295
20	0xbf000763	-0.5001127
21	0x3f004030	0.5009794
22	0xbeca2ed8	-0.39488864
23	0xbec5e38c	-0.38650167
24	0xbd050155	-0.032471973
25	0x3e18454c	0.14870185
26	0xbb759100	-0.003747046
27	0x3eb612ed	0.35561314
28	0xbe7dbcec	-0.24779099
29	0xbf0df19c	-0.5544679
30	0xbd85972e	-0.06522976
31	0x3e9a5590	0.30143404
32	0x3e8a80de	0.27051443
33	0x3e85474b	0.26030955
34	0x3edd84f8	0.4326551
35	0xbe2a10cf	-0.16607974
36	0xbdc8505c	-0.09780952
37	0xbf0d7c8e	-0.5526818
38	0x3e9851c3	0.2974988
39	0xbec5336c	-0.38515794
40	0xbed844a9	-0.42239884
41	0x3d79939b	0.060931783
42	0xbe1050cc	-0.14093322
43	0xbd57cfaa	-0.05268828
44	0x3ed9b175	0.425182
45	0xbee3f2aa	-0.44521075
46	0x3dbed533	0.09318008
47	0x3cdb9b0c	0.02680733
48	0x3ee96099	0.4558151
49	0x3f108308	0.5644994
50	0x3dac1a5e	0.08403467
51	0xbe2d309d	-0.16913076
52	0xbe9ad768	-0.30242467
53	0xbf3590d6	-0.7092413
54	0x3e891e34	0.26780856
55	0x3e15229a	0.1456398
56	0x3df18ace	0.11794053
57	0xbf55a97a	-0.83461726
58	0xbe9eb229	-0.309953
59	0x3f0dd15d	0.5539759
60	0x3e046728	0.12929976
61	0x3e8ea7b0	0.2786231
62	0x3eb803b0	0.35940313
63	0x3eea44bc	0.45755565
64	0x3e2d3225	0.1691366
65	0x3e0f980a	0.14022842
66	0x3d439486	0.047749065
67	0x3ef35460	0.4752531
68	0x3e9960d8	0.29956698
69	0x3f180692	0.59385026
70	0xbe737f50	-0.23779035
71	0xbc6f6382	-0.014611127
72	0xbdf853e9	-0.121253796
73	0xbd4091bc	-0.047013983
74	0xbea0a727	-0.31377527
75	0x3d2d9618	0.04237947
76	0xbca2a772	-0.019855235
77	0x3f0bf803	0.5467531
78	0x3e2a1713	0.16610365
79	0x3f275b96	0.65374124
80	0x3dcd8fc1	0.100371845
81	0xbbc2fb84	-0.005950393
82	0x3e424efa	0.1897544
83	0x3f8886f0	1.066618
84	0x3f591df5	0.84811336
85	0x3e1def5a	0.15423337
86	0x3f15b25c	0.5847528
87	0x3eab18c0	0.3341732
88	0x3ddb9ac4	0.107228786
89	0x3e8709b9	0.26374605
90	0x3e98c919	0.29840925
91	0xbd191983	-0.037377845
92	0x3f19bace	0.60050666
93	0x3f7f3cc0	0.9970207
94	0x3f501146	0.8127636
95	0xbe021972	-0.12705019
96	0x3e3623ab	0.17787044
97	0xbc205b6f	-0.0097874245
98	0xbe2e7fc1	-0.17040922
99	0x3ca44bb6	0.020055633
100	0xbe84390e	-0.2582478
101	0x3eaf0476	0.3418309
102	0xbe81e6bc	-0.2537135
103	0x3eac60e9	0.33667687
104	0x3e92d111	0.2867513
105	0x3e6ccff8	0.23126209
106	0x3dc1fdd7	0.09472244
107	0x3f1d97c4	0.615597
108	0x3d8835ce	0.066508874
109	0xbdfef87a	-0.12449737
110	0xbe827246	-0.2547781
111	0xb9a17260	-0.0003079353
112	0xbdc2bb2e	-0.09508358
113	0xbe480ea9	-0.19536842
114	0xbe1b1268	-0.1514374
115	0x3ed582c2	0.41701323
116	0x3f6f4391	0.93462473
117	0x3f69d2aa	0.9133707
118	0x3db62fc7	0.088958316
119	0x3d2581dd	0.04040705
120	0x3ec3ee1e	0.38267606
121	0x3f6dbc78	0.92865705
122	0x3f32b945	0.6981395
123	0x3d658103	0.05603124
124	0x3d9ed338	0.077551305
125	0xbe5add64	-0.21373516
126	0xbe5eb3c3	-0.21748261
127	0xbec0c418	-0.37649608
128	0xbe81a351	-0.25319913
129	0xbce994fe	-0.028513428
130	0xbd31d9d8	-0.043420643
131	0x3e4a42f3	0.19752102
132	0xbe24fcec	-0.16112107
133	0xbdfdee54	-0.12398973
134	0xbe5a7d97	-0.21336971
135	0xbe0c8df9	-0.13726033
136	0x3e359e27	0.17736112
137	0xbe0b5716	-0.1360744
138	0x3e8edb36	0.2790162
139	0x3d0e24f7	0.03470322
140	0x3ebc66de	0.3679723
141	0xbe2ab7d6	-0.1667169
142	0x3dd949c6	0.10609774
143	0x3e3ca7b8	0.18423355
144	0xbeacc46e	-0.33743614
145	0xbd871386	-0.06595521
146	0x3dc0bfe4	0.094116
147	0x3e068aa6	0.13138828
148	0x3d541ab0	0.051783264
149	0x3de1afcd	0.110198595
150	0xbdcbd5c1	-0.0995288
151	0xbca83d0a	-0.020536918
152	0x3e82cf28	0.25548673
153	0x3e0db898	0.13839948
154	0xbe420103	-0.18945698
155	0x3c87157a	0.016489733
156	0x3e0d94cc	0.13826293
157	0xbe918179	-0.28419092
158	0x3e4c0570	0.19923949
159	0x3e5e1663	0.21688227
160	0x3d908c21	0.070579775
161	0xbd2196f3	-0.039450597
162	0xbea033d2	-0.31289536
163	0xbcfaf098	-0.030632302
164	0x3e64e08c	0.22351283
165	0x3e8022cf	0.25026557
166	0x3ec5b123	0.38611707
167	0xbcdbebea	-0.026845891
168	0x3e75e653	0.24013643
169	0x3e470468	0.19435275
170	0x3d9a300e	0.07528697
171	0xbec0848e	-0.3760113
172	0x3d9f94a4	0.07792023
173	0x3eaa4112	0.3325277
174	0xbe06143b	-0.13093655
175	0xbec3705f	-0.3817167
176	0xbcdd8c38	-0.0270444
177	0xbe646498	-0.22303998
178	0x3de9088e	0.11378585
179	0x3e8024ce	0.2502808
180	0x3cd1ba50	0.025601536
181	0x3dcb5d1e	0.0992987
182	0xbd024135	-0.031800468
183	0xbefccf76	-0.4937703
184	0xbea7d553	-0.3277994
185	0x3d11cbdd	0.03559481
186	0x3e279eb9	0.16369142
187	0xbeaa63c5	-0.33279243
188	0x3d19e30e	0.03757005
189	0xbe43780d	-0.19088764
190	0xbe096053	-0.13415651
191	0x3eec7a68	0.4618714
192	0x3dfab20d	0.12240992
193	0x3efc36fe	0.49260706
194	0x3d523e23	0.05132879
195	0xbe1fb2ca	-0.15595546
196	0x3d2a031a	0.041506864
197	0xbbf40fc0	-0.0074481666
198	0x3e19aa4e	0.15006372
199	0x3e3469b7	0.17618452
200	0x3edc867f	0.43071362
201	0x3eb1fd4c	0.34763563
202	0x3ee37167	0.44422457
203	0x3e54197f	0.20712851
204	0xbd49e59a	-0.04929123
205	0x3ee41e42	0.44554335
206	0x3e9b5a12	0.30342156
207	0x3e93807a	0.28808957
208	0x3e9a4de4	0.3013755
209	0x3ea93c63	0.33053884
210	0xbd955d41	-0.072931774
211	0x3d3bb3bf	0.045825716
212	0x3eee0d95	0.46494737
213	0x3f3b48ad	0.7315777
214	0x3dfb7a19	0.12279148
215	0x3e0c05e2	0.13674119
216	0x3dbcd3b9	0.092200704
217	0xbd078862	-0.03308905
218	0x3eb04e77	0.34434864
219	0x3eebc3f1	0.4604793
220	0x3e7b38cb	0.24533384
221	0x3f426ad8	0.7594428
222	0x3e3ea03b	0.1861581
223	0x3ef46eaa	0.4774068
224	0x3f0226f3	0.5084068
225	0x3e5a2873	0.21304493
226	0x3ede1053	0.4337183
227	0x3e85c50c	0.26126897
228	0xbd8cef4e	-0.06881581
229	0x3d578600	0.052618027
230	0x3ed342ad	0.41261807
231	0x3e3eba96	0.18625864
232	0xbd152bc3	-0.036418688
233	0x3eb5596f	0.35419795
234	0x3de9db78	0.114188135
235	0x3ec04d7c	0.37559116
236	0x3d9db615	0.07700745
237	0xbda9cbd7	-0.082908325
238	0x3ebfb93e	0.37446016
239	0x3d3a3fdd	0.04547106
240	0x3f15ef84	0.58568597
241	0x3ec54950	0.38532495
242	0x3e4f9e5d	0.20275255
243	0x3ef76575	0.48319593
244	0x3f0c2a46	0.54752004
245	0x3e014a6c	0.12626046
246	0x3eaa636b	0.33278975
247	0x3ec9d698	0.39421535
248	0x3e8df6cd	0.27727357
249	0x3ea176a4	0.31535828
250	0x3ec2a014	0.38012755
251	0x3ed71863	0.42010793
252	0x3ec6d359	0.3883312
253	0x3d98fcd0	0.07470095
254	0x3e7a561d	0.24446912
255	0x3eb2b69c	0.34904945

model/lstm3/stacked_rnn_cells_2/lstm_cell_2/BiasAdd/ReadVariableOp/resource f4 [256]
0	0xbe1ddc7f	-0.15416144
1	0xbe08c7e4	-0.13357502
2	0xbe19e7e9	-0.15029873
3	0xbe37f4fe	-0.17964551
4	0xbe28ade7	-0.16472588
5	0xbd33ce6a	-0.043898024
6	0xbe97e925	-0.29670063
7	0xbee873f0	-0.45400953
8	0xbe95e71c	-0.29277885
9	0x3ccf4818	0.025302932
10	0xbe264dfc	-0.16240686
11	0xbe049f2e	-0.12951347
12	0x3d20fcc5	0.03930356
13	0xbeb086af	-0.34477755
14	0x3f1ce08a	0.6128012
15	0xbed0a26a	-0.40748912
16	0xbc3fd9ea	-0.01170967
17	0x3deb6668	0.11494142
18	0x3d73565d	0.059408534
19	0xbe2e36ae	-0.17013046
20	0xbdb067d4	-0.08613554
21	0xbe099036	-0.13433918
22	0xbe843862	-0.25824267
23	0xbda20e44	-0.07912877
24	0xbe09839f	-0.13429116
25	0xbe00b639	-0.12569512
26	0xbe6e0ea7	-0.23247777
27	0xbe0e09f2	-0.13870981
28	0x3e23b74a	0.15987888
29	0x3ec6d9fc	0.38838184
30	0xbe45a1b6	-0.19299969
31	0x3e885994	0.26630843
32	0x3e475f92	0.19470051
33	0xbe7f868a	-0.24953666
34	0xbe658b82	-0.224165
35	0xbeac3b17	-0.33638832
36	0x3d1af06f	0.03782695
37	0xbe5c6f16	-0.21526751
38	0x3e20a590	0.15688157
39	0xbf61bf41	-0.88182455
40	0xbe9a7036	-0.30163735
41	0xbee2a2c6	-0.4426481
42	0xbe5ab302	-0.21357349
43	0x3e43014a	0.1904346
44	0x3dc03c8d	0.09386549
45	0xbe87d032	-0.26526028
46	0xbeb88ccc	-0.3604492
47	0xbd95a9a6	-0.073077485
48	0x3ede607a	0.4343298
49	0xbe6eed29	-0.23332657
50	0x3d4fbf0f	0.050719317
51	0xbe229a09	-0.15879072
52	0xbf08f60f	-0.53500456
53	0xbf154761	-0.5831204
54	0x3d56c492	0.052433558
55	0x3ebee62b	0.3728498
56	0x3de51b2d	0.11186824
57	0x3d9c5f5e	0.07635377
58	0xbf12c6ea	-0.5733477
59	0x3e0a257f	0.13490866
60	0x3dedfdf6	0.11620705
61	0xbeba4298	-0.36378932
62	0x3d2d551e	0.042317502
63	0xbe815381	-0.2525902
64	0x3eb69fcc	0.3566879
65	0x3e98d9fd	0.29853812
66	0xbe83ef97	-0.2576873
67	0x3eb1b740	0.3471012
68	0x3e8dcd84	0.27695858
69	0x3e6159a6	0.22006854
70	0x3eff8bbe	0.49911302
71	0x3e0c81d3	0.13721399
72	0xbe643ba6	-0.22288379
73	0xbe078246	-0.13233289
74	0xba1db900	-0.0006016642
75	0x3d8863a5	0.06659631
76	0x3e1a70de	0.15082118
77	0x3f52049a	0.8203827
78	0xbe030857	-0.1279615
79	0x3ef83146	0.48475093
80	0x3e299dec	0.16564149
81	0xbd644014	-0.055725172
82	0x3ce858d8	0.028362677
83	0xbd501141	-0.050797705
84	0xbbe6e29b	-0.0070460564
85	0x3ee343ec	0.44387758
86	0x3eef7fc0	0.46777153
87	0x3ececc56	0.4039027
88	0x3f22d6e2	0.63609135
89	0x3efeca4a	0.4976371
90	0x3eab9918	0.3351524
91	0x3e64eed8	0.22356737
92	0xbe25e4ac	-0.16200513
93	0xbe5beefe	-0.21477887
94	0x3dfef549	0.12449128
95	0xbe5a3f26	-0.21313152
96	0x3bec6ba0	0.0072149783
97	0xbc404c4c	-0.011736941
98	0xbd1924fa	-0.03738878
99	0x3f0ba410	0.54547215
100	0x3d37dddb	0.044889312
101	0x3ebc657d	0.3679618
102	0x3bd6bc70	0.006553225
103	0x3f8def52	1.108866
104	0xbc53dfc4	-0.012931768
105	0x3f802a53	1.0012916
106	0x3eb43fbe	0.3520488
107	0xbe113eb3	-0.14184074
108	0xbd88da41	-0.06682254
109	0x3d5b0b8c	0.05347781
110	0x3edc4284	0.43019497
111	0xbe0a61d4	-0.13513881
112	0x3c90d3a0	0.017679036
113	0x3e610563	0.21974711
114	0xbd9f8a12	-0.07790007
115	0x3db248c8	0.08705288
116	0x3f6464a3	0.8921606
117	0x3f690cee	0.91035354
118	0xbe7f6dd5	-0.24944241
119	0x3db7bf8f	0.08972084
120	0xbc67046c	-0.014100175
121	0xbe979a52	-0.29609925
122	0x3f88e7a9	1.0695697
123	0x3d486a3e	0.048929445
124	0xbb812f90	-0.0039424375
125	0x3e1e7540	0.15474415
126	0x3e9fbfbd	0.31200972
127	0x3e9cca2d	0.30622998
128	0xbc6db656	-0.014508804
129	0x3e03fa90	0.12888551
130	0xbe2f9537	-0.17146765
131	0xbcd1f317	-0.02562861
132	0xbd566b86	-0.052348636
133	0xbd5b49db	-0.05353723
134	0xbe7dd04b	-0.24786489
135	0x3cf638d5	0.030056396
136	0xbe779ef6	-0.24181733
137	0xbeb6addc	-0.3567952
138	0x3d02eff2	0.03196711
139	0xbdce722a	-0.10080369
140	0x3e9397db	0.28826794
141	0x3e0439ad	0.12912627
142	0x3e2e620c	0.1702959
143	0x3e8f99a6	0.28046912
144	0x3db3d56a	0.0878094
145	0x3edb9198	0.42884517
146	0xbe611b14	-0.21982986
147	0xbea9b988	-0.33149362
148	0xbbd6bd14	-0.0065533016
149	0xbe8489cb	-0.25886378
150	0x3d5bfa08	0.053705245
151	0x3d73a94c	0.059487626
152	0x3c947948	0.018124238
153	0x3d12ff1d	0.035887826
154	0xbd8cbbf4	-0.06871787
155	0xbe5295c8	-0.2056495
156	0xbdf8bc67	-0.1214531
157	0x3ee25d40	0.4421177
158	0x3dfada6e	0.122486934
159	0xbdd9edba	-0.10641046
160	0x3e3972fc	0.1811027
161	0x3dfdfb7e	0.12401484
162	0xbd935110	-0.07193196
163	0xbd5b47a5	-0.053535122
164	0x3e224456	0.1584638
165	0x3dc4b61a	0.096050456
166	0xbe42625a	-0.1898283
167	0x3bfdf100	0.0077496767
168	0xbdeaeae0	-0.1147058
169	0x3e943afb	0.2895125
170	0x3e5b9b9e	0.21446082
171	0xbd313000	-0.043258667
172	0x3e843f01	0.25829318
173	0x3f205bb6	0.6263994
174	0x3dddd22d	0.108311035
175	0xbd6729ca	-0.056436338
176	0xbd8f97e1	-0.070113905
177	0xbe65f480	-0.2245655
178	0x3c950262	0.018189613
179	0x3d720994	0.059091166
180	0x3e41e6b4	0.18935663
181	0xbdbc46c0	-0.09193182
182	0x3ebc15a6	0.36735266
183	0xbca8e86a	-0.020618636
184	0x3e0406fe	0.12893292
185	0xbe51fa56	-0.20505652
186	0xbe02f682	-0.12789348
187	0xbecbf5c2	-0.39835936
188	0xbe34d6c8	-0.17660058
189	0x3e41e902	0.18936542
190	0xbebd35f5	-0.36955228
191	0x3d2c342a	0.042041935
192	0x3ea00c17	0.31259224
193	0x3e8a7e60	0.2704954
194	0xbc335007	-0.010944373
195	0x3e212b46	0.15739164
196	0x3e154561	0.14577247
197	0x3ee5e03d	0.44897643
198	0x3ed2b6ec	0.41155183
199	0x3dfb682e	0.1227573
200	0xbca5fb2f	-0.020261375
201	0x3f10d0eb	0.56568784
202	0x3cd1fe7c	0.025634043
203	0x3e715b5d	0.23570009
204	0x3e86f20a	0.26356536
205	0x3ea8c218	0.32960582
206	0x3e26d9ea	0.16294065
207	0x3e9468ae	0.28986114
208	0x3e8af4b8	0.2713983
209	0x3c52a920	0.012857705
210	0x3e8304f2	0.2558971
211	0xbc353ac0	-0.01106137
212	0x3e1f2375	0.1554087
213	0x3dcd4f5a	0.10024901
214	0x3e3b9548	0.18318665
215	0x3e07ca4e	0.13260767
216	0x3ef9d8e8	0.487983
217	0x3e4e3931	0.20139004
218	0x3e412f2b	0.1886565
219	0x3ea1939a	0.31557924
220	0x3f26ce99	0.65158993
221	0x3e83dade	0.2575292
222	0x3e675e0b	0.22594468
223	0x3ed36f0c	0.4129566
224	0x3e9adfce	0.30248874
225	0x3e21f708	0.15816891
226	0xbd6c2d17	-0.05766019
227	0x3e38d314	0.1804927
228	0x3dd9903c	0.10623214
229	0x3e4a48b6	0.197543
230	0x3f027086	0.5095295
231	0x3f3bf4ec	0.73420596
232	0xbd859c90	-0.065240026
233	0x3e938930	0.28815603
234	0x3c46fc55	0.012145122
235	0x3d1ec1ce	0.038759045
236	0x3e5c9f13	0.21545057
237	0x3ea7aea9	0.32750443
238	0x3e321882	0.17392161
239	0x3d90424a	0.07043894
240	0x3f19c57e	0.60066974
241	0x3e8e9735	0.27849737
242	0xbc584192	-0.013199227
243	0xbdc1d816	-0.09465043
244	0x3dd4a658	0.1038329
245	0x3d846f4c	0.06466541
246	0x3e4bf196	0.19916376
247	0x3f0592ff	0.52177423
248	0x3ea5a085	0.3234903
249	0x3f1dc004	0.6162112
250	0x3e6404ea	0.222675
251	0x3e0ee2d3	0.13953714
252	0x3e8f8d9a	0.2803772
253	0x3d5894d5	0.052876312
254	0x3e8fda6e	0.28096336
255	0x3c941b56	0.018079441

model/enc1_bn/batchnorm/mul f4 [513]
0	0x3faaf26d	1.3355232
1	0x40370fb2	2.860333
2	0x412f5332	10.957811
3	0x412befe3	10.746066
4	0x412cb530	10.794235
5	0x4134500d	11.269544
6	0x414c5def	12.772933
7	0x4163bcd3	14.2336
8	0x41805718	16.042526
9	0x4136a227	11.414588
10	0x414f31c4	12.94965
11	0x416dfe43	14.874576
12	0x4138567a	11.521112
13	0x417c9780	15.786987
14	0x4170ef8d	15.058484
15	0x417bf98c	15.748425
16	0x4183e4dd	16.48675
17	0x41931d52	18.389317
18	0x41a732a9	20.899736
19	0x4172f9e5	15.186009
20	0x419f0e40	19.881958
21	0x419bc3d7	19.470625
22	0x41bd8092	23.687778
23	0x4196e66f	18.862516
24	0x41a043d9	20.033129
25	0x419ceee8	19.616653
26	0x41be6323	23.798407
27	0x41baff2d	23.374598
28	0x41962509	18.768084
29	0x41b7f7e2	22.996037
30	0x41cf8156	25.938152
31	0x41b69fd5	22.828043
32	0x41b2b57c	22.338615
33	0x41dee69b	27.8626
34	0x41b2c0e3	22.344183
35	0x41dd8e0f	27.694365
36	0x41c84510	25.033722
37	0x41e6951a	28.822803
38	0x41dcfcc4	27.62342
39	0x41c9f3f4	25.244118
40	0x41d2555b	26.291677
41	0x41d9fbaf	27.247892
42	0x41cd4685	25.659433
43	0x41fb381b	31.402395
44	0x41e06dce	28.053616
45	0x41bb4e75	23.41331
46	0x41ee7466	29.806835
47	0x41e222a3	28.266912
48	0x41f116b3	30.136084
49	0x41da4a83	27.286383
50	0x4200cc13	32.19929
51	0x41fadc0b	31.357443
52	0x4205ea5e	33.478874
53	0x41ee5756	29.792645
54	0x41e43b72	28.529026
55	0x420be191	34.97028
56	0x41be5c9a	23.795216
57	0x41c440ac	24.531578
58	0x41e9cc50	29.224762
59	0x41ad89de	21.692318
60	0x420bf117	34.98544
61	0x42015f38	32.342987
62	0x42104921	36.071415
63	0x42213ce6	40.30947
64	0x42aada35	85.426186
65	0x4276823a	61.627174
66	0x4284ae89	66.34089
67	0x4271232d	60.28435
68	0x427e8e6c	63.639084
69	0x426b1e67	58.77969
70	0x4269bffa	58.437477
71	0x42722799	60.53867
72	0x4279ba1e	62.431755
73	0x42819b42	64.80324
74	0x426ea6e7	59.66299
75	0x4281722a	64.72298
76	0x428adc5d	69.4304
77	0x42788f3f	62.13989
78	0x428e39e2	71.11305
79	0x427849d6	62.072105
80	0x42819e85	64.80961
81	0x426f5ecf	59.842587
82	0x4260fd65	56.247456
83	0x4283962d	65.79331
84	0x42788c80	62.137207
85	0x4289d169	68.909004
86	0x42896f99	68.717964
87	0x427d4e6b	63.32658
88	0x4276e055	61.719074
89	0x428e31a9	71.09699
90	0x42854220	66.62915
91	0x428aceb1	69.403694
92	0x4280c53d	64.38523
93	0x42870d59	67.52607
94	0x428c0305	70.0059
95	0x42897fd7	68.74969
96	0x42922cf0	73.08777
97	0x428d709b	70.71993
98	0x428147a2	64.63991
99	0x4286a826	67.328415
100	0x42968fce	75.28087
101	0x428521b0	66.565796
102	0x426d71e3	59.361217
103	0x4286eb51	67.4596
104	0x42865a41	67.17628
105	0x4291a5e7	72.82403
106	0x42987329	76.22492
107	0x428bcaaa	69.89583
108	0x42a68d0d	83.27549
109	0x42ad7749	86.73298
110	0x42a2c6e5	81.388466
111	0x429572df	74.72436
112	0x4286e74a	67.45174
113	0x429a3527	77.10381
114	0x428a81e4	69.25369
115	0x42a005fa	80.01167
116	0x4276206b	61.53166
117	0x42559194	53.392166
118	0x429505ee	74.51158
119	0x428d376e	70.60826
120	0x4268ff7c	58.249496
121	0x4293213d	73.56492
122	0x42692dbe	58.29467
123	0x4286d125	67.408485
124	0x4284b842	66.35988
125	0x426307e8	56.75772
126	0x4248fe00	50.248047
127	0x42849f2d	66.31089
128	0x42dc7a6c	110.239105
129	0x42bcf5e6	94.48027
130	0x42d2f698	105.48163
131	0x42be35c0	95.10498
132	0x42c9fab6	100.98967
133	0x42a18bbe	80.772934
134	0x42a352ea	81.66194
135	0x42c80536	100.01018
136	0x42afdaa4	87.92703
137	0x42c32403	97.570335
138	0x42bc02e9	94.005684
139	0x42cf9dc7	103.80816
140	0x42ab226b	85.56722
141	0x42a80871	84.01649
142	0x42970693	75.51284
143	0x429fc08c	79.87607
144	0x42998e40	76.77783
145	0x4296be0e	75.3712
146	0x42995af0	76.67761
147	0x4299a241	76.8169
148	0x4290e2ce	72.44298
149	0x42b2d5b3	89.41738
150	0x429bec50	77.96155
151	0x42b47fff	90.24999
152	0x42b714cc	91.54062
153	0x42aba6a2	85.825455
154	0x429dec11	78.96107
155	0x42841b63	66.05349
156	0x42a1e856	80.95378
157	0x4293b678	73.856384
158	0x4273c956	60.946617
159	0x42c394c4	97.79056
160	0x42c25079	97.15717
161	0x429d66c1	78.70069
162	0x42bc07dd	94.01536
163	0x42aa127b	85.036095
164	0x429d4ab3	78.6459
165	0x42ae02fc	87.00583
166	0x42b47db4	90.245514
167	0x42a24633	81.13711
168	0x42bb3600	93.60547
169	0x42b6c41c	91.383026
170	0x42c20ccb	97.02499
171	0x42b45a9e	90.17699
172	0x42a7839c	83.75705
173	0x42b3c95f	89.8933
174	0x42ad94e6	86.79082
175	0x43009fe7	128.62462
176	0x42df0dd5	111.527016
177	0x42bf9eac	95.809906
178	0x42aefeb3	87.49746
179	0x42bddd3a	94.93208
180	0x42a7cb74	83.89737
181	0x42cce2cb	102.442955
182	0x42d8eb0d	108.45908
183	0x42d416ee	106.044785
184	0x42d28a16	105.2697
185	0x42d3fbfa	105.99214
186	0x42b181c5	88.753456
187	0x42cd0d89	102.526436
188	0x42b051e4	88.15994
189	0x42d6cdd4	107.40201
190	0x42a980ee	84.751816
191	0x42b8895d	92.26829
192	0x430853fd	136.32808
193	0x42e8f73b	116.48287
194	0x42f7ae96	123.84099
195	0x42ff63d9	127.695015
196	0x42f5abda	122.83565
197	0x42c2a335	97.31876
198	0x42fe03d9	127.007515
199	0x4300c769	128.77895
200	0x4302d8fb	130.84758
201	0x4306324d	134.19649
202	0x42f0c9b8	120.39398
203	0x43026ee1	130.43312
204	0x431060c0	144.37793
205	0x430fd87b	143.84563
206	0x42f6c4ff	123.38476
207	0x42e8dab3	116.42715
208	0x42fbebd5	125.96061
209	0x42fcfda6	126.49541
210	0x42e3244d	113.5709
211	0x4305b123	133.69194
212	0x42e2063e	113.01219
213	0x42f4efab	122.4681
214	0x42c77158	99.721375
215	0x4310511e	144.31686
216	0x4302bd6d	130.73994
217	0x42c407c6	98.01518
218	0x43082a05	136.16414
219	0x42d9b578	108.85443
220	0x42e47191	114.22181
221	0x42f1be0f	120.87121
222	0x430a78b8	138.47156
223	0x430d0545	141.02058
224	0x431d8a98	157.54138
225	0x432a4e96	170.30698
226	0x43238952	163.5364
227	0x431f2c2f	159.17259
228	0x43114f26	145.30917
229	0x4314d8cd	148.84688
230	0x430d21d9	141.13222
231	0x43136176	147.3807
232	0x4305ccdd	133.80025
233	0x43192083	153.127
234	0x42e4e752	114.4518
235	0x42f8bb22	124.36549
236	0x431ee509	158.89467
237	0x43283ed3	168.2454
238	0x4320dd14	160.86359
239	0x43083680	136.21289
240	0x43138790	147.52954
241	0x430c8b7a	140.54483
242	0x42faeb37	125.459404
243	0x43173de6	151.24179
244	0x430f6af4	143.41779
245	0x431962b6	153.38559
246	0x4315e0bc	149.87787
247	0x4308952b	136.58269
248	0x42db771c	109.732635
249	0x432197c8	161.5929
250	0x43062a89	134.16615
251	0x430779a5	135.47517
252	0x4325af89	165.68568
253	0x433d100b	189.06267
254	0x4335484b	181.2824
255	0x4351fe5b	209.99358

model/enc1_bn/batchnorm/sub f4 [513]
0	0xbdf981d5	-0.121829666
1	0xbec312ca	-0.38100272
2	0xbf9fa145	-1.247109
3	0xbf9bb52c	-1.2164664
4	0xbfa146ae	-1.2599695
5	0xbf9884f1	-1.191557
6	0xbf8fdac2	-1.1238635
7	0xbf944b07	-1.1585397
8	0xbf9c8e48	-1.2230921
9	0xbf5f188c	-0.8714683
10	0xbf6cab98	-0.9244933
11	0xbf72d1ab	-0.9485118
12	0xbf27edd5	-0.6559728
13	0xbf4a7c03	-0.79095477
14	0xbf2bda8e	-0.67130363
15	0xbf290159	-0.6601768
16	0xbf23941d	-0.6389788
17	0xbf26ced2	-0.6515933
18	0xbf325b0d	-0.6967018
19	0xbef41498	-0.47671962
20	0xbf0b15e0	-0.54330254
21	0xbf022d9d	-0.5085085
22	0xbf1a37e0	-0.6024151
23	0xbeed16c3	-0.46306428
24	0xbee5053a	-0.4473055
25	0xbedcc0d8	-0.43115878
26	0xbf04ac1b	-0.5182511
27	0xbefaea74	-0.49007
28	0xbec9d120	-0.39417362
29	0xbee3c855	-0.4448878
30	0xbf00fefd	-0.5038908
31	0xbee5ace5	-0.4485847
32	0xbedd7e90	-0.43260622
33	0xbf0f4407	-0.55963176
34	0xbedfadc3	-0.43687257
35	0xbf070549	-0.5274244
36	0xbeee7409	-0.46572903
37	0xbf08707f	-0.53296655
38	0xbef2c3ad	-0.47414914
39	0xbed423b5	-0.41433492
40	0xbed04cfb	-0.4068373
41	0xbee0b1dc	-0.43885696
42	0xbed16f25	-0.4090511
43	0xbefac4c9	-0.4897826
44	0xbedc5d0a	-0.43039733
45	0xbeb1321e	-0.3460855
46	0xbedae597	-0.42753288
47	0xbed2e3ce	-0.41189426
48	0xbed2d2c9	-0.4117644
49	0xbebf6605	-0.37382522
50	0xbee86034	-0.45385897
51	0xbed4c3de	-0.41555685
52	0xbee07b18	-0.43843913
53	0xbecb5c11	-0.3971868
54	0xbeb4a86a	-0.3528474
55	0xbee5dee5	-0.44896618
56	0xbe9b656f	-0.30350825
57	0xbe9d7387	-0.30752203
58	0xbeae33a9	-0.3402379
59	0xbe7f3cef	-0.24925588
60	0xbec5c357	-0.38625595
61	0xbebd5665	-0.36979976
62	0xbec839dc	-0.39106643
63	0xbed4e484	-0.41580594
64	0xbf6b73c4	-0.9197352
65	0xbf28f606	-0.660004
66	0xbf38fa08	-0.7225652
67	0xbf2703c2	-0.6524011
68	0xbf25bcc7	-0.64741176
69	0xbf16da70	-0.5892706
70	0xbf13edaf	-0.5778455
71	0xbf19ca3c	-0.6007421
72	0xbf1e835c	-0.6191919
73	0xbf22fa9a	-0.6366364
74	0xbf0f8639	-0.5606418
75	0xbf25ee07	-0.64816326
76	0xbf263a1c	-0.6493242
77	0xbf1606ba	-0.58604014
78	0xbf270085	-0.6523517
79	0xbf0e9f64	-0.5571196
80	0xbf169c38	-0.5883212
81	0xbf074a07	-0.5284733
82	0xbef8ab12	-0.48568016
83	0xbf134f33	-0.57542723
84	0xbf0a2a35	-0.5397065
85	0xbf17c24e	-0.5928086
86	0xbf0d3d57	-0.5517172
87	0xbf016a44	-0.50552773
88	0xbeee11bb	-0.46497902
89	0xbf0cf31b	-0.5505845
90	0xbf00c8d2	-0.5030643
91	0xbf019b4c	-0.5062759
92	0xbef3c465	-0.47610775
93	0xbefc294a	-0.4925025
94	0xbf03a878	-0.5142894
95	0xbf00684f	-0.5015916
96	0xbf065d63	-0.52486247
97	0xbf005454	-0.50128675
98	0xbeef6f15	-0.46764436
99	0xbef670be	-0.4813289
100	0xbf0b007f	-0.5429763
101	0xbeee7758	-0.46575427
102	0xbecf46c0	-0.40483665
103	0xbee90294	-0.4550978
104	0xbeeb1ba1	-0.45919517
105	0xbefd127d	-0.49428168
106	0xbf03e536	-0.51521623
107	0xbeecbbda	-0.4623707
108	0xbf0b411f	-0.5439624
109	0xbf11e0e2	-0.5698377
110	0xbf044faa	-0.5168406
111	0xbef5e97e	-0.48029703
112	0xbee12145	-0.43970695
113	0xbefff6b3	-0.49992904
114	0xbed7f0f1	-0.4217601
115	0xbef9b529	-0.48771027
116	0xbeb9ef00	-0.36315155
117	0xbea2a440	-0.31765938
118	0xbee2e412	-0.4431463
119	0xbed04cfc	-0.40683734
120	0xbeae4444	-0.34036458
121	0xbed6c1b7	-0.41944668
122	0xbeb412f2	-0.35170704
123	0xbec3df56	-0.3825633
124	0xbec64cb7	-0.38730404
125	0xbea56db3	-0.32310256
126	0xbe916801	-0.2839966
127	0xbebb5bd4	-0.36593497
128	0xbf1e51a6	-0.61843336
129	0xbf05b3ae	-0.52227294
130	0xbf14ee43	-0.5817606
131	0xbf052eaa	-0.5202433
132	0xbf0cffb9	-0.550777
133	0xbee33962	-0.44379717
134	0xbee74ad9	-0.45174292
135	0xbf0ac607	-0.54208416
136	0xbeef1eb7	-0.4670312
137	0xbf008275	-0.5019906
138	0xbefbe409	-0.49197415
139	0xbf0c727b	-0.54862183
140	0xbee8f482	-0.45499045
141	0xbee3abd3	-0.4446703
142	0xbed2134c	-0.41030347
143	0xbedb4f48	-0.42833924
144	0xbecf5ee3	-0.4050208
145	0xbecc322b	-0.39882025
146	0xbed1c1bc	-0.4096812
147	0xbed10579	-0.40824488
148	0xbebccdde	-0.36875814
149	0xbeeb38a5	-0.45941654
150	0xbec57b9b	-0.38570866
151	0xbee3b368	-0.44472814
152	0xbedc93b6	-0.43081445
153	0xbeccfb9d	-0.40035716
154	0xbec0b4e6	-0.37638015
155	0xbea02273	-0.31276283
156	0xbebfe922	-0.37482554
157	0xbeaed264	-0.3414489
158	0xbe8a9f29	-0.27074555
159	0xbee2b40a	-0.44277984
160	0xbee121e7	-0.43971178
161	0xbeb67e8c	-0.35643423
162	0xbed7a8a8	-0.42120862
163	0xbebcd6b8	-0.36882567
164	0xbeb39442	-0.3507405
165	0xbec1b2ed	-0.37831822
166	0xbeca52c7	-0.3951628
167	0xbeafbc80	-0.34323502
168	0xbecb332c	-0.3968748
169	0xbec6f065	-0.3885528
170	0xbed38f7a	-0.413204
171	0xbec01579	-0.37516382
172	0xbeb520c8	-0.35376573
173	0xbec0fd01	-0.37693027
174	0xbeb81177	-0.35950825
175	0xbf0af146	-0.54274404
176	0xbeea02c0	-0.45705223
177	0xbec96482	-0.39334494
178	0xbeb50985	-0.35358825
179	0xbec03dd5	-0.37547174
180	0xbeab433f	-0.33449742
181	0xbecc0a62	-0.3985167
182	0xbed5c11d	-0.41748896
183	0xbed21e56	-0.4103877
184	0xbecb8808	-0.3975222
185	0xbecbe67f	-0.39824292
186	0xbea9a3fc	-0.33132923
187	0xbebf986f	-0.37420985
188	0xbea0f16a	-0.31434184
189	0xbec17cdb	-0.3779057
190	0xbe93f0e0	-0.2889471
191	0xbea260f3	-0.3171459
192	0xbef07ac7	-0.46968672
193	0xbecce4e1	-0.4001837
194	0xbed97eee	-0.42479652
195	0xbedf6628	-0.43632627
196	0xbed5dd7d	-0.41770545
197	0xbeadf72c	-0.3397764
198	0xbedfd6fe	-0.43718714
199	0xbee1e4b7	-0.44119808
200	0xbedda676	-0.43291062
201	0xbee1d90a	-0.441109
202	0xbec9e4d6	-0.394324
203	0xbed2ffe8	-0.41210866
204	0xbee7d4c9	-0.4527953
205	0xbee7332e	-0.45156235
206	0xbec7fd24	-0.39060318
207	0xbebb1d7b	-0.3654593
208	0xbec8f075	-0.39245954
209	0xbec56d9f	-0.38560197
210	0xbeafd033	-0.3433853
211	0xbecc4792	-0.39898354
212	0xbead10aa	-0.33801776
213	0xbebaffe5	-0.36523357
214	0xbe95ff8a	-0.29296523
215	0xbed8c999	-0.42341307
216	0xbec2d904	-0.38056195
217	0xbe94013f	-0.289072
218	0xbecb10cf	-0.3966126
219	0xbea373bc	-0.31924236
220	0xbea6e80f	-0.32598922
221	0xbeb2390c	-0.34809148
222	0xbec97aab	-0.393514
223	0xbec94b07	-0.39315054
224	0xbedf9c95	-0.4367415
225	0xbef0fb8e	-0.4706692
226	0xbee602ac	-0.44923913
227	0xbedd15f5	-0.43180814
228	0xbec4b622	-0.38420206
229	0xbec7b862	-0.3900786
230	0xbeba9748	-0.36443543
231	0xbec2685b	-0.37970242
232	0xbeaf7549	-0.3426917
233	0xbec93fcc	-0.39306486
234	0xbe9c21e4	-0.30494606
235	0xbea68fab	-0.32531485
236	0xbecbba33	-0.39790496
237	0xbed65ccf	-0.41867682
238	0xbec814f1	-0.39078477
239	0xbea608d6	-0.32428616
240	0xbeb4e82a	-0.35333377
241	0xbeaaf55c	-0.3339032
242	0xbe974e92	-0.29552132
243	0xbeaf9449	-0.3429282
244	0xbea886bc	-0.32915294
245	0xbeb0b240	-0.34510994
246	0xbeb335d2	-0.35002
247	0xbea5725c	-0.32313812
248	0xbe8249dd	-0.25446978
249	0xbeba0086	-0.36328524
250	0xbe9739ba	-0.2953623
251	0xbe98dc21	-0.29855445
252	0xbeb5f178	-0.3553579
253	0xbecf6108	-0.40503716
254	0xbec18589	-0.37797192
255	0xbedcb094	-0.43103468

model/enc1_bn2/batchnorm/mul f4 [128]
0	0x3f0a6ef4	0.5407555
1	0x3ee25f46	0.44213313
2	0x3edbc4a0	0.4292345
3	0x3f03c9df	0.51479906
4	0x3f1b343a	0.60626566
5	0x3f2566d6	0.6461004
6	0x3f0d8fcb	0.55297536
7	0x3f379a95	0.7172025
8	0x3ececce4	0.40390694
9	0x3e961cdb	0.2931889
10	0x3eec5477	0.46158192
11	0x3f081282	0.5315324
12	0x3ea40d84	0.32041562
13	0x3f619b6a	0.8812777
14	0x3f39b81a	0.7254654
15	0x3e9f9db2	0.31175
16	0x3eb5a488	0.3547709
17	0x3eafbd2e	0.3432402
18	0x3f178d64	0.5920012
19	0x3ec38a45	0.3819143
20	0x3ecfd905	0.4059526
21	0x3f0eb844	0.5574992
22	0x3e68af78	0.22723186
23	0x3dad1dd1	0.08452953
24	0x3eaf3e41	0.34227183
25	0x3eeddcd5	0.46457544
26	0x3f7cde4f	0.98776716
27	0x3d9dec24	0.07711056
28	0x3ec694d0	0.3878541
29	0x3e2ce70d	0.16885014
30	0x3ec38c1f	0.3819284
31	0x3ec79e6f	0.38988063
32	0x3eb08568	0.3447678
33	0x3ea6b090	0.32556581
34	0x3e628629	0.2212149
35	0x3e05377e	0.1300945
36	0x3e8fc6f5	0.2808148
37	0x3eb6c28d	0.35695305
38	0x3eadd51f	0.3395166
39	0x3db0a237	0.0862469
40	0x3d8396d8	0.064252555
41	0x3dd27a1a	0.10277195
42	0x3eb730e0	0.35779476
43	0x3ea61ab5	0.3244225
44	0x3ea74cf9	0.32675913
45	0x3e24a3b4	0.16078073
46	0x3d79c6f4	0.060980752
47	0x3e281dc1	0.164176
48	0x3e9cffb6	0.30663842
49	0x3e8c5918	0.27411723
50	0x3f329958	0.69765234
51	0x3e8af8ec	0.27143037
52	0x3e60cdfc	0.21953577
53	0x3d90d555	0.0707194
54	0x3e8afae3	0.27144536
55	0x3eb9ca2e	0.36287063
56	0x3e905213	0.28187618
57	0x3ead0fc1	0.33801082
58	0x3e90f7c1	0.2831402
59	0x3e27bf11	0.1638148
60	0x3e09333c	0.1339845
61	0x3e9ea293	0.3098341
62	0x3eece245	0.4626638
63	0x3ed3fe7e	0.414051
64	0x3f053590	0.52034855
65	0x3f1857e8	0.59509134
66	0x3f1f84b5	0.6231187
67	0x3f2edbbc	0.6830404
68	0x3e373a02	0.17893222
69	0x3e8e255e	0.27762884
70	0x3ee433e7	0.44570848
71	0x3f1f83ec	0.6231067
72	0x3f032d21	0.51240736
73	0x3f25832b	0.6465327
74	0x3eb5d21c	0.35511863
75	0x3f1b76d2	0.6072818
76	0x3efd46bf	0.49468037
77	0x3ef2b97a	0.47407132
78	0x3e8e2ef9	0.27770212
79	0x3ee98538	0.4560945
80	0x3eedc5bd	0.46439925
81	0x3f57528b	0.84110326
82	0x3ee00824	0.4375621
83	0x3eef2605	0.46708694
84	0x3f809c14	1.0047631
85	0x3f57b53d	0.8426092
86	0x3ef66c47	0.48129484
87	0x3f17710f	0.5915689
88	0x3f5e98b1	0.8695174
89	0x3f0e32ec	0.5554645
90	0x3f2701fc	0.652374
91	0x3f0496ac	0.5179241
92	0x3f4745fa	0.7784115
93	0x3f27e046	0.6557659
94	0x3f5a53dc	0.8528421
95	0x3eab1e05	0.3342134
96	0x3fcc3397	1.5953244
97	0x3ffa3890	1.9548512
98	0x3fb47710	1.4098835
99	0x402b1752	2.6732984
100	0x3f732eb6	0.9499315
101	0x3f86d8e0	1.0534935
102	0x3f2a40e8	0.6650529
103	0x3f3c5aa9	0.73575836
104	0x402d7f15	2.7108815
105	0x3fa41d41	1.2821428
106	0x3fda8bbc	1.7073894
107	0x4017ed31	2.373852
108	0x3f91f59b	1.1403078
109	0x3fa90b6c	1.3206611
110	0x3f691acf	0.9105653
111	0x3f509bee	0.8148793
112	0x4012e335	2.2951176
113	0x40ac9450	5.3931046
114	0x40613275	3.5187047
115	0x409b5e66	4.8552732
116	0x3fdc2269	1.7198001
117	0x40192938	2.3931408
118	0x3fcadfda	1.5849564
119	0x3fa8c57e	1.318527
120	0x40223f31	2.535107
121	0x4050f405	3.2648938
122	0x4018c896	2.3872428
123	0x400531e7	2.0811708
124	0x3ff4d67a	1.9127953
125	0x406643f2	3.597897
126	0x3ffb0276	1.9610126
127	0x3f0816da	0.5315987

model/enc1_bn2/batchnorm/sub f4 [128]
0	0xbf001e19	-0.50045925
1	0x3e526854	0.2054761
2	0xbe1359ae	-0.14389679
3	0x3f271cb3	0.65278167
4	0x3e122211	0.14270808
5	0xbf0c6714	-0.54844785
6	0x3dfacec3	0.12246468
7	0xbd9f9a85	-0.07793144
8	0xbee04a49	-0.43806675
9	0xbf14ba0f	-0.580964
10	0xbf00768f	-0.50180906
11	0x3d4b3e3e	0.049619906
12	0xbc73f792	-0.014890568
13	0xbeab6d6b	-0.33481917
14	0x3f264520	0.64949226
15	0x3f184ef0	0.5949545
16	0xbe6f2dca	-0.23357311
17	0xbe2f2cce	-0.17106935
18	0xbee9e654	-0.4568354
19	0x3d968528	0.07349616
20	0x3c89bcdf	0.016813694
21	0xbca23948	-0.019802704
22	0x3dffad53	0.12484231
23	0xbd60f992	-0.05492551
24	0xbe758c97	-0.23979412
25	0x3d6a3fc4	0.057189718
26	0x3f1bc270	0.60843563
27	0xbe822f3e	-0.25426668
28	0x3e979eb4	0.29613268
29	0x3db9bc60	0.09069133
30	0xbe627c14	-0.22117645
31	0xbe8bd18d	-0.27308312
32	0x3e4aedef	0.19817327
33	0x3caf7ff2	0.021423314
34	0xbe4cafc8	-0.1998893
35	0xbc58928c	-0.013218533
36	0x3d4ef591	0.05052716
37	0x3e012960	0.1261344
38	0xbc908013	-0.017639196
39	0x3c186c1a	0.009303117
40	0xbbc6e8e6	-0.006070244
41	0x3d479039	0.048721526
42	0xbde7adaa	-0.11312421
43	0xbd6c843b	-0.057743292
44	0xbe867b6e	-0.26266044
45	0xbda93193	-0.08261409
46	0x3c433cc2	0.011916341
47	0x3e9e733f	0.309473
48	0x3c35c626	0.011094606
49	0x3d48c3c9	0.04901484
50	0xbc3cdbb4	-0.011526991
51	0x3cc064ce	0.023485567
52	0xbd9fb081	-0.07797337
53	0xbd026aa9	-0.03184
54	0xbd9247c0	-0.071425915
55	0x3e638e8e	0.22222349
56	0xbbf2cd95	-0.007409761
57	0xbdabd228	-0.083896935
58	0x3d3939c8	0.04522112
59	0xbd1ef901	-0.038811687
60	0xbe11e59c	-0.14247745
61	0xbce2cf3f	-0.027686713
62	0xbd5fc3f1	-0.054630224
63	0xbd06abaf	-0.032878574
64	0xbdd3510c	-0.10318193
65	0xbcadb323	-0.021203583
66	0xbdae5fe4	-0.085143834
67	0xbcf7fe9b	-0.030272773
68	0xbd234d97	-0.039868917
69	0x3c5f9670	0.013646707
70	0xbd96c424	-0.073616296
71	0xbd22180e	-0.03957372
72	0xbe394443	-0.18092446
73	0x3e65244a	0.22377124
74	0x3d6a6548	0.057225496
75	0xbdea4e78	-0.11440748
76	0xbe3466c0	-0.17617321
77	0xbdad9f6d	-0.08477674
78	0xbc3cab18	-0.011515401
79	0xbd38dc94	-0.045132235
80	0x3d5d6946	0.054055475
81	0xbe65386c	-0.22384804
82	0x3dd3df0d	0.10345278
83	0x3e48a702	0.19594958
84	0x3e535b32	0.20640257
85	0x3ccbe5b7	0.02488981
86	0x3c73a83a	0.014871651
87	0x3e10f13e	0.14154527
88	0xbdf88864	-0.121353894
89	0x3d834ad6	0.06410758
90	0x3ce95df0	0.028487176
91	0x3da70d1e	0.08156799
92	0xbc713509	-0.014722117
93	0xbe77fe59	-0.2421812
94	0xbd904987	-0.07045274
95	0xbe3b662e	-0.18300697
96	0x3eddd012	0.43322808
97	0xbd052e74	-0.032515004
98	0x3da2be7c	0.07946488
99	0xbf85aa92	-1.0442679
100	0xbe468759	-0.19387569
101	0xbd98bb6f	-0.07457625
102	0x3f2f0855	0.6837209
103	0x3e8a65bb	0.2703074
104	0xbe4ec046	-0.20190534
105	0xbcdf65c0	-0.027270198
106	0xbe21743f	-0.15767
107	0xbf971e94	-1.1806207
108	0xbd989f68	-0.07452279
109	0xbe60ec14	-0.21965057
110	0x3e98341f	0.29727265
111	0x3f1517d9	0.58239514
112	0xbd216a05	-0.03940775
113	0xbeaa125a	-0.33217126
114	0xbe1beb16	-0.15226397
115	0x3e09c5d1	0.13454367
116	0xbc96a25e	-0.01838797
117	0xbe2b63d1	-0.16737296
118	0x3db9cdac	0.09072432
119	0x3d106d8c	0.035260722
120	0x3ebdd77c	0.37078464
121	0xbf432bc2	-0.76238644
122	0xbeea47a0	-0.4575777
123	0x3e2031de	0.15644023
124	0x3d17fb37	0.03710481
125	0xbe29e5bb	-0.16591541
126	0x3db74259	0.08948202
127	0xbc324034	-0.010879565
