system_ext/etc/model_0828.onnx (onnx, 265514 bytes, 12 tensors)

linear_layer0.weight f4 [1, 10, 1]
-0.677019 -0.6471029 -0.60337186 -0.578369 -0.581809 -0.6138917 -0.6638457 -0.7115637
-0.7157083 -0.6359867
00000000: 1e51 2dbf 89a8 25bf 9476 1abf fe0f 14bf
00000010: 6ff1 14bf 0228 1dbf cbf1 29bf 0a29 36bf
00000020: a938 37bf 06d0 22bf

linear_layer.weight f4 [2, 64]
-0.00016843106 -0.6521155 0.00029475847 0.00021070513 0.0020927286 -0.00019015867 0.0027792663 -0.1332667
-0.00012633036 -0.00012943915 -0.00044191178 -0.00043663508 -0.00029996422 -0.00028507327 -0.12978305 -0.072769254
-0.00033850866 0.000115570714 -0.00021186318 -0.00058037677 -0.00035930955 -0.0005737301 -0.00035709268 -1.6617229e-05
-0.0001538485 1.7459162e-05 0.0020814897 -0.00016978318 0.00032733005 7.2374416e-05 -0.034445785 -0.0001120917
-0.0002794415 -0.00048122127 7.4514064e-05 0.06289143 9.275802e-05 5.859591e-06 2.337204e-05 -0.00043230146
-0.0011110208 -0.0005273379 -0.00027479304 -0.07184905 -0.0002641906 -0.00082315825 -0.00019247444 -0.000260673
-0.00049013796 -0.029139087 -0.00025951228 -0.0049342047 -0.00036243675 -0.00043610513 -0.00025986097 0.011610345
-5.043674e-05 -0.0007761244 -0.00033391782 -0.000709029 -0.00041169958 -3.3543285e-05 -0.00022164379 4.7037916e-05
0.00030873608 0.65107787 -0.0002947565 -0.00021070534 -0.0019616634 0.00019016417 -0.002779265 0.1329043
0.00012633514 0.00012944605 0.00044191783 0.00043664276 0.00029996992 0.00028507787 0.12969185 0.07286698
0.00033851576 -0.0001155691 0.0002118694 0.00058037974 0.00035931513 0.0005737373 0.0003570979 1.6622831e-05
0.00015385347 -1.7454124e-05 -0.0020814887 0.00016978901 -0.00032732874 -7.2371455e-05 0.034444124 0.00011209573
0.00027944663 0.0004812275 -7.450942e-05 -0.062466472 -9.2753144e-05 -5.8547225e-06 -2.3368213e-05 0.0004323079
0.0011110243 0.0005273455 0.00027479613 0.07241088 0.00026419802 0.0008231599 0.0001924797 0.00026067754
0.00049013493 0.031716064 0.0002595185 0.0051328978 0.00036272744 0.00043611065 0.00025986752 -0.01161027
5.0442228e-05 0.00077612506 0.00033392478 0.000709031 0.00041170683 3.3548233e-05 0.00022165108 -4.7032783e-05
00000000: de9c 30b9 0bf1 26bf d089 9a39 baf0 5c39
00000010: 2926 093b 5465 47b9 5a24 363b 1177 08be
00000020: 8c77 04b9 0fba 07b9 65b0 e7b9 2bec e4b9
00000030: 8444 9db9 e375 95b9 d9e5 04be 0c08 95bd
00000040: dd79 b1b9 8e5e f238 9727 5eb9 6d24 18ba
00000050: b661 bcb9 6066 16ba 2b38 bbb9 3a65 8bb7
00000060: 6452 21b9 4475 9237 9a69 083b d307 32b9
00000070: 7f9d ab39 b8c7 9738 0617 0dbd c612 ebb8
00000080: 0182 92b9 6d4c fcb9 6f44 9c38 39cd 803d
00000090: 1587 c238 819d c436 130f c437 85a6 e2b9
000000a0: ac9f 91ba 0c3d 0aba 1912 90b9 9825 93bd
000000b0: 1083 8ab9 37c9 57ba f7d2 49b9 f0aa 88b9
000000c0: 9a7c 00ba 18b5 eebc 260f 88b9 1caf a1bb
000000d0: 7005 beb9 0aa5 e4b9 f33d 88b9 5139 3e3c
000000e0: 0a8c 53b8 d474 4bba b111 afb9 21de 39ba
000000f0: 62d9 d7b9 d4b0 0cb8 0d69 68b9 944a 4538
00000100: dbdd a139 0aad 263f 8c89 9ab9 c9f0 5cb9
00000110: 408f 00bb ce66 4739 5424 36bb 1118 083e
00000120: d578 0439 e9bb 0739 35b1 e739 33ed e439
00000130: 4845 9d39 8176 9539 f1cd 043e 493b 953d
00000140: d17a b139 b05d f2b8 4229 5e39 a024 183a
00000150: 7662 bc39 dc66 163a de38 bb39 4271 8b37
00000160: ba53 2139 726a 92b7 9669 08bb 6409 3239
00000170: 529d abb9 21c6 97b8 4815 0d3d f014 eb38
00000180: b182 9239 434d fc39 f141 9cb8 d8dc 7fbd
00000190: 7784 c2b8 af73 c4b6 db06 c4b7 62a7 e239
000001a0: ca9f 913a 8f3d 0a3a 8312 9039 284c 943d
000001b0: 0f84 8a39 53c9 573a 60d4 4939 8cab 8839
000001c0: 667c 003a b4e8 013d fc0f 8839 de31 a83b
000001d0: 742c be39 c8a5 e439 d43e 8839 0039 3ebc
000001e0: ee91 5338 df74 4b3a a012 af39 44de 393a
000001f0: 5bda d739 24b6 0c38 026b 6839 1145 45b8

linear_layer.bias f4 [2]
0.08919701 -0.09267664
00000000: ecac b63d 40cd bdbd

onnx::LSTM_548 f4 [2, 256]
0.00034867227 0.00034781374 -5.427844e-05 -1.5985815e-05 -9.87051e-05 9.901936e-05 5.467724e-05 0.00014364705
0.00014428279 0.00034732377 -0.00014333452 -0.00014540997 -0.00014273041 -8.5739004e-05 8.455007e-05 0.0003479607
-8.566543e-05 -0.0003482452 -6.212068e-05 -0.00014386004 0.00012686195 0.00014336368 -0.00014367068 -0.00014384626
0.02006452 -0.00011630418 -8.572544e-05 -0.00014354712 -8.538044e-05 -9.846511e-05 -0.00034829302 8.598148e-05
0.00014546093 -9.871984e-05 0.00022352632 -0.00014500094 -8.533108e-05 -0.00034819098 -8.5693355e-05 5.4181783e-05
-0.00014504715 -1.1992666e-05 -0.00014335397 8.593245e-05 0.00018423128 -8.599039e-05 0.00014172765 -9.860501e-05
0.0001287833 -8.579523e-05 9.650268e-05 0.00014544188 2.0791424e-05 -0.0003461239 8.604077e-05 -0.00014527694
0.024554705 -0.000116068404 -8.5522304e-05 5.4312146e-05 -0.0003483409 -9.847025e-05 -0.00014371306 8.586448e-05
0.00034877862 0.0003479766 8.565518e-05 5.8448648e-05 -0.00014364501 0.00014386099 0.00014399097 0.000116580784
-0.00014367022 0.000116258576 -0.00014348682 0.00014396275 -0.00014062316 8.591242e-05 1.5583797e-05 -0.0003479139
-0.00014377858 -9.900288e-05 -7.3256524e-06 0.00014543577 0.00011633734 -5.8276855e-05 -9.887634e-05 -9.8977e-05
0.07230469 8.5722786e-05 0.00014408969 -1.2236444e-05 0.0001441775 0.00014429945 -0.00016391334 0.0003486546
0.00012890768 -3.7893624e-06 2.5891131e-05 4.882932e-05 -0.00016642796 0.00011169073 -0.00010256789 -7.8858255e-05
-9.092824e-05 4.6096222e-05 5.1470037e-05 6.937193e-05 -8.4165185e-06 4.20931e-05 3.187398e-05 0.000114517956
-0.00010425037 -0.00020827152 7.654414e-06 -6.572751e-05 9.065148e-05 -5.0748495e-05 -1.0030119e-05 -2.4668401e-05
-0.052409615 3.9510112e-05 7.274338e-06 0.000128591 -0.00018403292 -8.2101236e-05 -0.00016374365 1.6113392e-05
0.00034872894 0.00034781374 -5.427844e-05 -1.5985815e-05 -0.00014357551 0.00011628463 5.467724e-05 0.00014364705
0.00014428279 0.00034732377 -0.00014331222 -0.00014540997 -0.00014273041 -8.5739004e-05 8.455007e-05 0.0003479607
-8.566543e-05 8.575055e-05 -6.212068e-05 -0.00014386042 0.00012686195 0.00014336368 -0.00014367065 -0.0001438462
0.02006452 0.00016280916 -8.572544e-05 -0.00014354712 -8.538044e-05 -9.846511e-05 -0.00034829302 8.598148e-05
0.00014546093 -9.871984e-05 6.290756e-05 -0.00014500094 -8.533108e-05 9.899459e-05 5.4677806e-05 5.4181783e-05
-0.00014504715 -0.00014486416 -0.00014335397 8.592988e-05 0.00018423128 -8.5734246e-05 0.00014172768 -0.00014484831
0.0001287833 -8.579523e-05 9.650268e-05 0.00014544188 2.0791656e-05 -0.00014326867 8.604077e-05 -0.00014527694
0.024554705 0.00012728281 -8.5522304e-05 5.4312146e-05 -0.0003483409 8.138697e-05 -0.00014370945 8.586448e-05
0.00034877862 0.0003479767 8.565518e-05 5.844859e-05 -0.00014364501 0.00014386099 -8.578197e-05 0.000116580784
0.0003489707 0.00011622729 -0.00014348682 0.00014396275 -0.00014062291 8.5912456e-05 1.5583772e-05 -0.0003479139
-0.00014377858 -9.900288e-05 -7.3256524e-06 0.00014543577 0.00011633734 -5.8276855e-05 -9.887634e-05 -9.8977e-05
0.07230469 8.5722786e-05 0.00014408969 -1.2237268e-05 0.0001441775 0.00014429945 -0.00016391334 0.0003486546
0.00018752886 0.00015872405 4.777667e-05 4.8395126e-05 -0.00016642796 1.2173359e-05 -0.00010256789 -7.8858255e-05
-0.0002134333 -5.247666e-05 0.00024612778 5.3355765e-05 -8.4165185e-06 4.20931e-05 3.187398e-05 0.0001144517
-0.00010425064 -6.4186584e-05 7.654414e-06 -6.572718e-05 9.065201e-05 -5.0748495e-05 -1.0030119e-05 0.00012677329
-0.052409556 3.951031e-05 7.274338e-06 0.000128591 -0.00016866901 -0.00023995076 -0.00016374365 1.5947726e-05
00000000: 00ce b639 c55a b639 08a9 63b8 4719 86b7
00000010: e6ff ceb8 9da8 cf38 3d55 6538 f69f 1639
00000020: 9e4a 1739 0219 b639 114c 16b9 3179 18b9
00000030: e7a9 15b9 c7ce b3b8 7950 b138 7f6e b639
00000040: 47a7 b3b8 ae94 b6b9 c946 82b8 23d9 16b9
00000050: 3f06 0539 e553 1639 4ea6 16b9 70d5 16b9
00000060: 595e a43c 55e8 f3b8 7fc7 b3b8 2385 16b9
00000070: 460e b3b8 0e7f ceb8 199b b6b9 f550 b438
00000080: df86 1839 cf07 cfb8 6462 6a39 650b 18b9
00000090: c6f3 b2b8 678d b6b9 45b6 b3b8 3f41 6338
000000a0: cc17 18b9 1c34 49b7 4a51 16b9 a236 b438
000000b0: 352e 4139 bd55 b4b8 ba9c 1439 29ca ceb8
000000c0: 010a 0739 f7ec b3b8 7b61 ca38 c281 1839
000000d0: 3e69 ae37 f777 b5b9 c970 b438 7b55 18b9
000000e0: f326 c93c c069 f3b8 705a b3b8 39cd 6338
000000f0: 86a1 b6b9 d081 ceb8 aeb1 16b9 2412 b438
00000100: 46dc b639 a170 b639 c6a1 b338 c226 7538
00000110: 6a9f 16b9 64d9 1639 48fc 1639 d57c f438
00000120: 2ea6 16b9 d9cf f338 f374 16b9 b5f4 1639
00000130: 3e74 13b9 e12b b438 f3b9 8237 3768 b6b9
00000140: 45c3 16b9 c49f cfb8 e0ce f5b6 1e80 1839
00000150: 22fa f338 4c6e 74b8 d55b cfb8 df91 cfb8
00000160: 7b14 943d 12c6 b338 c816 1739 204b 4db7
00000170: 5a2e 1739 174f 1739 27e0 2bb9 a1cb b639
00000180: 642b 0739 c04c 7eb6 c830 d937 15ce 4c38
00000190: 2a83 2eb9 813b ea38 b719 d7b8 b460 a5b8
000001a0: bab0 beb8 7157 4138 88e1 5738 c57b 9138
000001b0: ac34 0db7 1f8d 3038 6db0 0538 5c29 f038
000001c0: fea0 dab8 7663 5ab9 756b 0037 30d7 89b8
000001d0: 251c be38 c8da 54b8 0847 28b7 fdee ceb7
000001e0: 77ab 56bd a9b7 2538 1616 f436 62d6 0639
000001f0: f6f8 40b9 c42d acb8 9ab2 2bb9 3f2b 8737
00000200: 9bd5 b639 c55a b639 08a9 63b8 4719 86b7
00000210: c28c 16b9 d6dd f338 3d55 6538 f69f 1639
00000220: 9e4a 1739 0219 b639 1546 16b9 3179 18b9
00000230: e7a9 15b9 c7ce b3b8 7950 b138 7f6e b639
00000240: 47a7 b3b8 fad4 b338 c946 82b8 3dd9 16b9
00000250: 3f06 0539 e553 1639 4ca6 16b9 6cd5 16b9
00000260: 595e a43c c0b7 2a39 7fc7 b3b8 2385 16b9
00000270: 460e b3b8 0e7f ceb8 199b b6b9 f550 b438
00000280: df86 1839 cf07 cfb8 3ded 8338 650b 18b9
00000290: c6f3 b2b8 519b cf38 d955 6538 3f41 6338
000002a0: cc17 18b9 ade6 17b9 4a51 16b9 4135 b438
000002b0: 352e 4139 39cc b3b8 bc9c 1439 6ce2 17b9
000002c0: 010a 0739 f7ec b3b8 7b61 ca38 c281 1839
000002d0: be69 ae37 643a 16b9 c970 b438 7b55 18b9
000002e0: f326 c93c 3877 0539 705a b3b8 39cd 6338
000002f0: 86a1 b6b9 4cae aa38 b6b0 16b9 2412 b438
00000300: 46dc b639 a470 b639 c6a1 b338 b226 7538
00000310: 6a9f 16b9 64d9 1639 d8e5 b3b8 d57c f438
00000320: 0ef6 b639 0dbf f338 f374 16b9 b5f4 1639
00000330: 2d74 13b9 e62b b438 e5b9 8237 3768 b6b9
00000340: 45c3 16b9 c49f cfb8 e0ce f5b6 1e80 1839
00000350: 22fa f338 4c6e 74b8 d55b cfb8 df91 cfb8
00000360: 7b14 943d 12c6 b338 c816 1739 aa4e 4db7
00000370: 5a2e 1739 174f 1739 27e0 2bb9 a1cb b639
00000380: 65a3 4439 2a6f 2639 cf63 4838 dffb 4a38
00000390: 2a83 2eb9 2e3c 4c37 b719 d7b8 b460 a5b8
000003a0: 11cd 5fb9 621a 5cb8 b60a 8139 51ca 5f38
000003b0: ac34 0db7 1f8d 3038 6db0 0538 ca05 f038
000003c0: 23a1 dab8 e99b 86b8 756b 0037 03d7 89b8
000003d0: 6d1c be38 c8da 54b8 0847 28b7 72ee 0439
000003e0: 67ab 56bd dfb7 2538 1616 f436 62d6 0639
000003f0: bedc 30b9 4b9b 7bb9 9ab2 2bb9 7bc7 8537

onnx::LSTM_549 f4 [2, 128, 18]
8.563702e-05 0.00014441437 0.0001289218 -1.899432e-05 -0.00014409395 0.0003485842 9.907377e-05 0.00014544789
0.000115565716 5.357631e-05 -5.1567225e-05 3.357391e-05 -0.00011629362 -0.00014685113 0.0003461174 -2.0590822e-05
-3.9073668e-05 1.2007736e-05 0.00034722773 0.00012790273 0.00034671015 -0.00016367144 8.5469605e-05 0.000348568
-8.561387e-05 0.00011624264 -0.00014262734 -8.358562e-05 -3.594112e-05 8.331513e-05 0.00012270035 -2.443063e-05
9.226767e-05 -0.00014052866 0.0003455524 -0.00013983653 -5.438388e-05 -0.00014389798 0.00014257726 -5.4413184e-05
-0.00017776735 -0.00014392713 -0.0003485042 -0.00016384815 -5.427969e-05 -1.1510008e-05 4.5003424e-05 8.519757e-05
0.00014111235 0.00014040402 -8.322479e-05 7.149989e-05 -0.00011446316 0.00017085024 8.193419e-05 -5.4154327e-05
1.2211393e-05 1.1824497e-05 -8.526016e-05 -1.6187094e-05 -4.2564337e-05 -1.621827e-05 1.18073e-05 -4.0734907e-05
-5.3783784e-05 0.0003459175 -0.00011570283 -0.0001411914 -0.00016207708 0.0001390831 0.00019771382 -8.223728e-05
0.00034817876 -8.54687e-05 -0.0003477303 -0.0003482555 5.4725133e-05 0.000144037 8.57771e-05 -0.00034832823
-9.848735e-05 0.00035791218 0.000126866 0.0003492771 -0.00014585638 2.4849149e-05 0.00012754527 -0.00012698687
-5.6110748e-05 8.7050204e-05 -0.00034778414 1.2248489e-05 -8.534984e-05 0.0001437623 0.00034804724 0.00014397995
0.0003480841 -0.00014392725 -0.00011693224 -3.719097e-05 7.519909e-05 -8.5629756e-05 0.0002771576 0.00011286316
-0.00014039472 -0.00014228938 0.00034626096 -0.00034457335 8.506784e-05 4.142393e-05 5.4999007e-05 0.00034861814
0.00014363627 -8.5831125e-05 -0.0003479411 -8.572552e-05 0.00013642498 0.00013074483 0.00015736332 0.00011603064
-8.3216415e-05 -8.143707e-05 0.00013022014 -8.5073734e-05 5.5936274e-05 5.475947e-05 8.5133186e-05 8.5431624e-05
9.786883e-05 0.00017835229 1.1961049e-05 -5.4547007e-05 5.4320124e-05 -0.0003482801 6.0936185e-05 -3.7031703e-05
-5.222842e-05 -0.00033782984 0.000141064 -7.0924296e-05 0.00033901873 9.544977e-05 -8.248052e-05 9.358292e-05
-8.593658e-05 0.000143628 0.00034858135 0.00014388548 -0.00014497874 -8.589666e-05 0.00014414931 0.00014417575
-0.000116535106 8.599361e-05 -9.662408e-05 0.00016445023 -6.222356e-05 -9.566653e-05 -0.00011405533 -1.864028e-05
-1.19022e-05 -9.823593e-05 0.000116151656 9.843728e-05 8.441764e-05 -8.5500484e-05 -8.5499014e-05 -9.902174e-05
-8.548868e-05 9.893424e-05 -8.5499174e-05 -8.383412e-05 -7.805548e-05 -0.00010861301 1.7374892e-05 -0.00010055434
-0.00017524806 7.769569e-05 0.0003322184 -3.3119133e-05 0.00034780483 -0.00034897448 -5.3625085e-05 0.00014371274
-9.843601e-05 -9.908543e-05 8.635561e-05 -0.00034852346 0.00032336527 0.00014900658 8.9390196e-05 -0.00011472032
-8.42157e-05 5.088576e-05 2.2023432e-05 8.614972e-05 -5.467256e-05 -0.00014647722 -0.00014533293 -0.00014387241
8.555841e-05 5.4602326e-05 -0.0001440721 8.5901396e-05 -5.4613793e-05 -0.00034888566 -8.607992e-05 8.54319e-05
-0.00017552637 -9.8209595e-05 1.5038295e-05 -5.3062406e-05 -0.00017717904 -5.4234773e-05 -5.4231612e-05 8.49443e-05
0.0001544101 1.9385736e-05 0.00013857357 -8.379317e-05 5.4293847e-05 2.0774407e-05 1.1668624e-05 -0.00011549456
4.981087e-05 4.0112536e-05 -8.628964e-05 -3.787275e-05 5.9063415e-05 8.38285e-05 -0.00026178564 -2.0294852e-05
5.399922e-06 -0.00014019887 -0.00011564773 0.00014478089 0.00014365664 0.00022319751 0.00014396201 9.907685e-05
-0.0002453758 1.8949104e-05 -8.477783e-05 -8.434998e-05 -3.930833e-05 -3.805721e-05 -0.00012202368 -6.5589324e-05
-0.00014482104 1.0472621e-05 0.00017828014 -3.1375355e-05 -0.00011469167 0.00010988055 2.0198235e-05 -1.2254994e-05
00000000: 0698 b338 f06d 1739 2f2f 0739 fe55 9fb7
00000010: ed17 17b9 2ec2 b639 d3c5 cf38 5f83 1839
00000020: df5b f238 20b7 6038 e349 58b8 b6d1 0c38
00000030: a9e2 f3b8 0dfc 19b9 1777 b539 74ba acb7
00000040: 08e3 23b8 d574 4937 1e0c b639 a11d 0639
00000050: a6c6 b539 389f 2bb9 253e b338 01c0 b639
00000060: 998b b3b8 4bc7 f338 3c8e 15b9 b04a afb8
00000070: 7cbf 16b8 78b9 ae38 20a9 0039 61f0 ccb7
00000080: d47f c138 e05a 13b9 422b b539 15a1 12b9
00000090: 3f1a 64b8 52e3 16b9 cb80 1539 b639 64b8
000000a0: 0f67 3ab9 25eb 16b9 71b7 b6b9 a7ce 2bb9
000000b0: 60aa 63b8 1c1b 41b7 0fc2 3c38 19ac b238
000000c0: 8ff7 1339 6b39 1339 f888 aeb8 36f2 9538
000000d0: f10b f0b8 4326 3339 15d4 ab38 c423 63b8
000000e0: 89df 4c37 d461 4637 b3cd b2b8 85c9 87b7
000000f0: 1c87 32b8 780c 88b7 f817 4637 c6da 2ab8
00000100: e695 61b8 435c b539 7ca5 f2b8 c70c 14b9
00000110: 3cf3 29b9 d6d6 1139 6651 4f39 ce76 acb8
00000120: c38b b639 a93d b3b8 924f b6b9 1096 b6b9
00000130: aa88 6538 a308 1739 3be3 b338 d39f b6b9
00000140: fe8a ceb8 29a6 bb39 5507 0539 2e1f b739
00000150: 06f1 18b9 2473 d037 acbd 0539 c727 05b9
00000160: 7558 6bb8 b98e b638 cc56 b6b9 dc7e 4d37
00000170: d9fd b2b8 e6be 1639 1c7a b639 53f9 1639
00000180: 0f7f b639 2deb 16b9 8539 f5b8 80fd 1bb8
00000190: 34b4 9d38 2094 b3b8 774f 9139 f3b0 ec38
000001a0: ec36 13b9 8433 15b9 5c8a b539 daa7 b4b9
000001b0: 7366 b238 9bbe 2d38 bcae 6638 bcc6 b639
000001c0: 119d 1639 3c00 b4b8 dd6b b6b9 8ac7 b3b8
000001d0: 4d0d 0f39 8c18 0939 e501 2539 7a55 f338
000001e0: 7984 aeb8 32c9 aab8 b48b 0839 9d69 b2b8
000001f0: 1e9d 6a38 88ad 6538 8889 b238 c129 b338
00000200: ee3e cd38 1404 3b39 50ac 4837 67c9 64b8
00000210: cad5 6338 5d99 b6b9 bb95 7f38 7d52 1bb8
00000220: d70f 5bb8 c11e b1b9 94ea 1339 31bd 94b8
00000230: 53be b139 342c c838 64f9 acb8 f341 c438
00000240: da38 b4b8 d99a 1639 ccc1 b639 f7df 1639
00000250: 6f05 18b9 6b23 b4b8 c926 1739 e22d 1739
00000260: 4f64 f4b8 7857 b438 a8a2 cab8 4670 2c39
00000270: 057e 82b8 94a0 c8b8 fd30 efb8 b25d 9cb7
00000280: 8faf 47b7 0304 ceb8 7296 f338 1d70 ce38
00000290: 6009 b138 b94e b3b8 ef4d b3b8 e4a9 cfb8
000002a0: 6348 b3b8 ea7a cf38 054e b3b8 1ad0 afb8
000002b0: b7b1 a3b8 2ac7 e3b8 4cc0 9137 b3e0 d2b8
000002c0: cbc2 37b9 8ef0 a238 992d ae39 66e9 0ab8
000002d0: 9359 b639 90f6 b6b9 7feb 60b8 98b1 1639
000002e0: 6e6f ceb8 16cc cfb8 d119 b538 07ba b6b9
000002f0: 5a89 a939 a63e 1c39 ff76 bb38 0196 f0b8
00000300: f69c b0b8 2b6e 5538 f6be b837 47ab b438
00000310: 3750 65b8 ae97 19b9 8364 18b9 75dc 16b9
00000320: d26d b338 cd04 6538 0f12 17b9 f625 b438
00000330: 1d11 65b8 a4ea b6b9 ce85 b4b8 e729 b338
00000340: 800d 38b9 e0f5 cdb8 fc4c 7c37 538f 5eb8
00000350: 23c9 39b9 257a 63b8 c076 63b8 2024 b238
00000360: 25e9 2139 8d9e a237 0f4e 1139 1eba afb8
00000370: 93b9 6338 b344 ae37 5cc4 4337 ab35 f2b8
00000380: 04ec 5038 823e 2838 66f6 b4b8 8ed9 1eb8
00000390: dcba 7738 15cd af38 4640 89b9 dd3e aab7
000003a0: fa30 b536 5902 13b9 e787 f2b8 53d0 1739
000003b0: 89a2 1639 200a 6a39 82f4 1639 7bc7 cf38
000003c0: c8a5 80b9 e4f4 9e37 c0ca b1b8 0de5 b0b8
000003d0: ffde 24b8 9e9f 1fb8 f7e6 ffb8 008d 89b8
000003e0: 1adb 17b9 91b3 2f37 b6f0 3a39 0899 03b8
000003f0: 9f86 f0b8 ac6f e638 616f a937 cc9a 4db7

onnx::LSTM_550 f4 [2, 128, 32]
0.00034865423 -0.0003486552 -0.00034865533 0.0003486534 0.00034865513 0.00034865233 0.0003486999 -0.00034865516
0.00034865274 0.0003486559 -0.00034865353 -0.0003486542 -0.00034865353 0.0003486557 0.00034865274 0.0003486541
0.0003486535 0.00034865277 0.00034869977 -0.00034869942 0.0003486995 -0.00034869974 -0.00034865382 -0.00034865233
0.00034863874 -0.00034865367 0.00034869974 -0.0003486546 0.00034865618 0.00034865492 0.00034865536 0.00034869972
0.00034869966 -0.00014399356 -0.00034865347 0.00014397397 -0.0003486996 0.0003486996 -0.00034869977 -0.00034868778
0.00034869945 0.00014398416 -0.00034869942 0.00034869957 0.0001439643 -0.00034869977 0.00034869957 0.00014400663
-0.00034869948 -0.00034869957 0.00034865373 -0.00011638039 -0.0003486994 -0.00014396448 -0.00034869948 0.00034869972
8.567489e-05 8.567889e-05 -8.5678934e-05 -0.0003487023 -0.00034865277 -0.00034869954 -9.9059704e-05 -0.00034865382
0.00034869957 0.0003486997 -8.233744e-05 -0.00034869908 8.2349135e-05 -0.00034869963 0.00034869902 0.00034869948
0.0003486993 0.00034865338 -0.00034869974 0.0003486996 -0.0003486994 0.00034869966 1.2241933e-05 -0.00034869942
-0.00034869983 0.00034869974 0.0003486995 0.0003486996 -0.00034865344 -0.00034865332 0.0003486999 -0.0003487001
0.00034856968 -0.00034869963 0.00014398372 0.00034869954 0.00034869937 -0.0003486987 0.00034869977 0.00034869974
0.00034865367 0.00034869974 -5.4533215e-05 -0.00014779987 8.5932414e-05 -0.00034869908 -0.00034869977 0.00034869945
-0.00034869957 0.00034869957 8.591916e-05 0.00034869963 0.00014396774 0.00034869948 1.2251317e-05 -0.00034869948
-8.593242e-05 8.593229e-05 -8.591935e-05 -0.00034869948 0.00034874727 5.4535718e-05 0.00034869942 -0.00034869957
-6.0308403e-06 0.0003486996 0.0001439428 -0.00034869957 -0.00034869992 5.454277e-05 -0.00034865335 -0.00034869942
0.00034865376 0.00034869977 0.0003486534 -0.00034869954 -9.906702e-05 -0.00034869957 -0.0003486996 -0.0003486549
-0.00034869972 -0.0003486538 -0.00034865356 -0.00034869974 0.0003486995 -0.00034865344 -0.00034869963 0.00034865452
-9.906405e-05 -0.00034869954 -0.00034869948 -0.00034869963 -0.00034869963 -0.00034869913 -0.0003486998 -0.00034869974
8.58875e-05 -0.00034865472 0.0003486996 -0.00034869948 -9.9065684e-05 0.0003486999 0.0003486539 -0.00034869954
-0.00034869986 -8.592408e-05 0.0001439866 -0.0001439866 0.00034869948 -0.000116374016 -0.00034865362 -0.00034869972
0.00014398483 -8.592394e-05 -0.0003486998 0.00014398179 0.0003486527 -0.0003486999 -9.906722e-05 0.0001439866
-0.00014398665 0.00014398423 0.0003486996 0.00014398665 -0.00034869963 0.00034869957 0.00014398676 -0.00014398171
8.590576e-05 0.00014398195 0.0003486533 8.592409e-05 -0.00034869954 9.906728e-05 -0.00014398649 0.00014398663
-0.00034869957 0.00034869974 0.00034869972 -0.00034869957 -0.00034869945 -0.00034869945 0.000348654 -0.0003486997
-0.00034865356 -0.00034865408 0.0003487 -0.0003486995 0.00034869963 0.00034869925 -0.0003486997 -0.00034869957
0.00034869998 -0.00034865362 0.00034865344 -0.0003486995 -0.00034869983 0.0003486993 0.00034865443 0.00034869957
-8.584119e-05 -0.00034869974 -0.00034869966 0.00034869954 -0.00034869986 0.00034869957 0.00034869966 0.00034869948
0.0003486537 -0.00034869942 0.00034869998 -0.00014394287 0.00034869902 -0.0003486994 -0.00014394295 5.454489e-05
-0.00034869966 0.00034869942 0.0003486992 -8.565778e-05 -0.00014394274 -0.00034869974 0.00014394289 -0.00014394286
0.00014394277 -0.00034869948 0.00034869934 -0.00014394287 -0.00034869937 0.00034865382 0.00034869948 -0.00034869908
5.449956e-05 8.237703e-05 -8.56542e-05 0.0001439429 0.00034869934 0.00014394258 0.00034865353 0.00034869925
00000000: 94cb b639 b5cb b6b9 bacb b6b9 78cb b639
00000010: b3cb b639 53cb b639 b5d1 b639 b4cb b6b9
00000020: 61cb b639 cecb b639 7ccb b6b9 93cb b6b9
00000030: 7ccb b6b9 c7cb b639 61cb b639 90cb b639
00000040: 7bcb b639 62cb b639 b1d1 b639 a5d1 b6b9
00000050: a8d1 b639 b0d1 b6b9 86cb b6b9 53cb b6b9
00000060: 80c9 b639 81cb b6b9 b0d1 b639 a1cb b6b9
00000070: d7cb b639 accb b639 bbcb b639 afd1 b639
00000080: add1 b639 fafc 16b9 7acb b6b9 b8f7 1639
00000090: abd1 b6b9 abd1 b639 b1d1 b6b9 15d0 b6b9
000000a0: a6d1 b639 74fa 1639 a5d1 b6b9 aad1 b639
000000b0: 1ff5 1639 b1d1 b6b9 aad1 b639 7c00 1739
000000c0: a7d1 b6b9 aad1 b6b9 83cb b639 3f11 f4b8
000000d0: a4d1 b6b9 2cf5 16b9 a7d1 b6b9 afd1 b639
000000e0: 5bac b338 81ae b338 87ae b3b8 08d2 b6b9
000000f0: 62cb b6b9 a9d1 b6b9 46be cfb8 86cb b6b9
00000100: aad1 b639 aed1 b639 94ac acb8 99d1 b6b9
00000110: dbb2 ac38 acd1 b6b9 97d1 b639 a7d1 b639
00000120: a1d1 b639 77cb b639 b0d1 b6b9 abd1 b639
00000130: a4d1 b6b9 add1 b639 b462 4d37 a5d1 b6b9
00000140: b3d1 b6b9 b0d1 b639 a8d1 b639 abd1 b639
00000150: 79cb b6b9 75cb b6b9 b5d1 b639 bcd1 b6b9
00000160: 3bc0 b639 acd1 b6b9 56fa 1639 a9d1 b639
00000170: a3d1 b639 8cd1 b6b9 b1d1 b639 b0d1 b639
00000180: 81cb b639 b0d1 b639 98ba 64b8 bafa 1ab9
00000190: 9d36 b438 99d1 b6b9 b1d1 b6b9 a6d1 b639
000001a0: aad1 b6b9 aad1 b639 7f2f b438 acd1 b639
000001b0: 0cf6 1639 a7d1 b639 018b 4d37 a7d1 b6b9
000001c0: 9e36 b4b8 8c36 b438 9a2f b4b8 a7d1 b6b9
000001d0: 11d8 b639 48bd 6438 a5d1 b639 aad1 b6b9
000001e0: 865c cab6 abd1 b639 5aef 1639 aad1 b6b9
000001f0: b6d1 b6b9 dac4 6438 76cb b6b9 a5d1 b6b9
00000200: 84cb b639 b1d1 b639 78cb b639 a9d1 b6b9
00000210: 34c2 cfb8 aad1 b6b9 abd1 b6b9 abcb b6b9
00000220: afd1 b6b9 85cb b6b9 7dcb b6b9 b0d1 b6b9
00000230: a8d1 b639 79cb b6b9 acd1 b6b9 9ecb b639
00000240: 9bc0 cfb8 a9d1 b6b9 a7d1 b6b9 acd1 b6b9
00000250: acd1 b6b9 9bd1 b6b9 b2d1 b6b9 b0d1 b6b9
00000260: 801e b438 a5cb b6b9 abd1 b639 a7d1 b6b9
00000270: 7cc1 cfb8 b5d1 b639 89cb b639 a9d1 b6b9
00000280: b4d1 b6b9 2432 b4b8 1cfb 1639 1cfb 16b9
00000290: a7d1 b639 d30d f4b8 7fcb b6b9 afd1 b6b9
000002a0: a2fa 1639 1032 b4b8 b2d1 b6b9 d1f9 1639
000002b0: 60cb b639 b5d1 b6b9 4fc2 cfb8 1cfb 1639
000002c0: 1ffb 16b9 79fa 1639 abd1 b639 1ffb 1639
000002d0: acd1 b6b9 aad1 b639 27fb 1639 ccf9 16b9
000002e0: 4e28 b438 dcf9 1639 74cb b639 2532 b438
000002f0: a9d1 b6b9 57c2 cf38 14fb 16b9 1efb 1639
00000300: aad1 b6b9 b0d1 b639 afd1 b639 aad1 b6b9
00000310: a6d1 b6b9 a6d1 b6b9 8ccb b639 aed1 b6b9
00000320: 7dcb b6b9 8fcb b6b9 b9d1 b639 a8d1 b6b9
00000330: acd1 b639 9fd1 b639 aed1 b6b9 aad1 b6b9
00000340: b8d1 b639 7fcb b6b9 79cb b639 a8d1 b6b9
00000350: b3d1 b6b9 a1d1 b639 9bcb b639 aad1 b639
00000360: a305 b4b8 b0d1 b6b9 add1 b6b9 a9d1 b639
00000370: b4d1 b6b9 aad1 b639 add1 b639 a7d1 b639
00000380: 82cb b639 a5d1 b6b9 b8d1 b639 5fef 16b9
00000390: 97d1 b639 a4d1 b6b9 64ef 16b9 21c7 6438
000003a0: add1 b6b9 a5d1 b639 9dd1 b639 2ca3 b3b8
000003b0: 56ef 16b9 b0d1 b6b9 60ef 1639 5eef 16b9
000003c0: 58ef 1639 a7d1 b6b9 a2d1 b639 5fef 16b9
000003d0: a3d1 b6b9 86cb b639 a7d1 b639 99d1 b6b9
000003e0: 7596 6438 d5c1 ac38 40a1 b3b8 61ef 1639
000003f0: a2d1 b639 4bef 1639 7ccb b639 9fd1 b639

onnx::LSTM_595 f4 [2, 256]
8.596602e-05 0.00014554088 -0.00014380743 -0.00014380322 0.0611775 -8.557012e-05 0.06924203 8.55789e-05
0.10117868 8.575869e-05 -0.00014385437 0.09793319 -8.550878e-05 0.00014378104 0.00034886814 0.05401456
0.00014541548 0.04225977 5.5046705e-05 0.0003485322 -8.567012e-05 0.00014412934 0.045061182 -9.904365e-05
0.026600014 0.00014133212 0.008231236 0.00014408113 6.0453613e-06 -7.711209e-05 0.0003488255 -0.00017619343
-0.00034811985 0.0001455225 -0.00014376902 0.0001455345 0.06425414 -8.557688e-05 0.078395024 -0.00014399602
0.120661676 8.575772e-05 0.00034864325 0.11947294 -0.00034797864 -0.0003481163 0.00034886628 0.06412226
0.0003482962 0.043239344 5.5053646e-05 0.00034838842 5.4557775e-05 -0.000348348 0.046411745 -0.00034874387
0.026665421 -5.2973814e-05 0.00830457 -0.00034851572 -8.5485204e-05 3.1142536e-05 0.00034873578 -5.803039e-05
-8.573384e-05 0.00014553087 -0.00034847023 0.00014399258 0.045190994 -0.00034838842 0.06269964 -8.562753e-05
0.14475366 0.00014413404 0.00014380322 0.17174543 -8.557375e-05 -0.00014383101 -1.1982842e-05 0.03656228
0.0003484171 0.010738785 -0.00014344479 -0.00014394209 8.591542e-05 0.00014406978 0.0069469265 -0.00034862832
0.0002340217 -8.4576684e-05 0.00056417705 -0.00014383896 5.8470137e-05 -5.1185947e-05 -9.897529e-05 1.1771143e-05
0.00017226116 -4.9256658e-05 -4.4723838e-05 0.00031724857 -0.008644913 0.00016726581 0.025971614 2.9319515e-05
0.0085281 2.0585532e-05 -8.6406166e-05 -0.024645694 -1.9660101e-05 7.652691e-05 -0.00021109275 -0.0023350832
-3.1686755e-05 0.0026068462 -2.6002142e-06 -5.1695035e-05 -5.3771884e-05 -3.116026e-05 0.007292472 3.9682374e-05
-0.014016866 2.4514591e-05 -0.010020356 -3.0527925e-05 -8.500936e-06 -1.2922995e-06 0.00014990605 -4.0034106e-06
-0.00011612935 0.00014556528 -0.00014380743 -0.0001437768 0.0611775 0.0003490452 0.06924203 -0.00014399606
0.10117868 8.575869e-05 -0.00014385437 0.09793319 -8.550878e-05 0.00014378104 0.00034886808 0.05401456
-0.000347915 0.04225977 5.5047374e-05 0.00034853225 -8.553886e-05 0.00014412934 0.045061182 -9.904365e-05
0.026600014 0.00014133212 0.008231236 0.00014408091 6.0454886e-06 2.7679142e-05 0.0003488255 -0.00017619343
-0.00034811985 0.00014554163 -0.00014376911 0.0001455345 0.06425414 0.00034894518 0.078395024 -0.00014399602
0.120661676 8.575772e-05 0.00034864325 0.11947294 -0.00034797864 -0.0003481163 0.00034886628 0.06412226
0.0003482962 0.043239344 5.5053646e-05 8.587673e-05 5.4557775e-05 -0.000348348 0.046411745 -0.00034874387
0.026665421 -5.2973814e-05 0.00830457 -0.00034851435 -8.5485204e-05 3.1142536e-05 0.00034873578 -5.803039e-05
-8.573421e-05 0.00014553087 -0.00034847023 0.00014399258 0.045190994 -0.00034838775 0.06269964 -8.562753e-05
0.14475366 0.00014413404 0.00014380322 0.17174543 -8.557375e-05 -0.00014383101 -1.1982842e-05 0.03656228
0.00034841718 0.010738785 5.501718e-05 -0.00014394209 8.591542e-05 0.00014406983 0.0069469265 -0.00034862797
0.0002340217 -8.4577194e-05 0.00056417705 -0.00014380881 5.8470137e-05 -5.1185947e-05 -9.897529e-05 1.1771143e-05
0.00014142563 -6.9554866e-05 -5.7547397e-05 0.00031724857 -0.008527961 8.593306e-05 0.025972037 2.446256e-05
0.00873587 -8.591137e-05 -4.6965895e-05 -0.031416588 -1.9660101e-05 -1.8148601e-05 -2.1390544e-05 -0.002334568
-2.0297819e-05 0.0026042752 -2.6002142e-06 -0.0001330362 3.429149e-05 7.9102e-06 0.007292901 -0.00015086347
-0.014079706 -5.179894e-06 -0.010029041 -5.4272873e-06 -8.500936e-06 7.1786035e-06 -8.081249e-05 -4.153168e-05
00000000: a848 b438 559c 1839 03cb 16b9 e2c9 16b9
00000010: 4295 7a3d 1c74 b3b8 c4ce 8d3d d278 b338
00000020: c536 cf3d 59d9 b338 9dd7 16b9 3291 c83d
00000030: 2d53 b3b8 eec3 1639 4ae8 b639 5f3e 5d3d
00000040: ac7a 1839 9518 2d3d f3e1 6638 33bb b639
00000050: cca9 b3b8 6d21 1739 1392 383d a8b5 cfb8
00000060: 46e8 d93c 8d32 1439 4edc 063c 7c14 1739
00000070: 42d9 ca36 3db7 a1b8 91e2 b639 90c0 38b9
00000080: db83 b6b9 6697 1839 b4c0 16b9 9f9a 1839
00000090: ad97 833d bd77 b3b8 928d a03d a3fd 16b9
000000a0: 781d f73d d3d8 b338 1bca b639 3bae f43d
000000b0: e770 b6b9 6183 b6b9 0ae8 b639 8852 833d
000000c0: 869b b639 bd1b 313d 67e9 6638 e7a7 b639
000000d0: f7d4 6438 7aa2 b6b9 3e1a 3e3d 9cd7 b6b9
000000e0: 7171 da3c 3330 5eb8 e40f 083c fdb8 b6b9
000000f0: 8546 b3b8 0b9f 0238 86d6 b639 a865 73b8
00000100: 01cc b3b8 a599 1839 e2b2 b6b9 b7fc 1639
00000110: 311a 393d e7a7 b6b9 ab68 803d ee92 b3b8
00000120: 4e3a 143e b022 1739 e2c9 1639 09de 2f3e
00000130: 0f76 b3b8 58d1 16b9 ea09 49b7 54c2 153d
00000140: c0ab b639 bbf1 2f3c ab69 16b9 29ef 16b9
00000150: 7d2d b438 7011 1739 0ba3 e33b 1ac8 b6b9
00000160: b963 7539 c35e b1b8 48e5 133a 7ad3 16b9
00000170: d53d 7538 7eb0 56b8 f490 cfb8 ad7c 4537
00000180: 01a1 3439 ef98 4eb8 db95 3bb8 6254 a639
00000190: 65a3 0dbc 1364 2f39 6cc2 d43c 2ef3 f537
000001a0: 72b9 0b3c 18af ac37 f534 b5b8 c4e5 c9bc
000001b0: bfeb a4b7 127d a038 c758 5db9 3208 19bb
000001c0: 65e7 04b8 9fd7 2a3b 577f 2eb6 1fd3 58b8
000001d0: 1f89 61b8 13b2 02b8 b0f5 ee3b a070 2638
000001e0: ffa6 65bc afa4 cd37 6b2c 24bc 1c0b 00b8
000001f0: 3e9f 0eb7 1373 adb5 1930 1d39 0955 86b6
00000200: 788a f3b8 e2a2 1839 03cb 16b9 cac2 16b9
00000210: 4295 7a3d 0e00 b739 c4ce 8d3d a6fd 16b9
00000220: c536 cf3d 59d9 b338 9dd7 16b9 3291 c83d
00000230: 2d53 b3b8 eec3 1639 48e8 b639 5f3e 5d3d
00000240: 5c68 b6b9 9518 2d3d abe2 6638 35bb b639
00000250: 5363 b3b8 6d21 1739 1392 383d a8b5 cfb8
00000260: 46e8 d93c 8d32 1439 4edc 063c 6d14 1739
00000270: 5ada ca36 8130 e837 91e2 b639 90c0 38b9
00000280: db83 b6b9 899c 1839 bac0 16b9 9f9a 1839
00000290: ad97 833d a1f2 b639 928d a03d a3fd 16b9
000002a0: 781d f73d d3d8 b338 1bca b639 3bae f43d
000002b0: e770 b6b9 6183 b6b9 0ae8 b639 8852 833d
000002c0: 869b b639 bd1b 313d 67e9 6638 b818 b438
000002d0: f7d4 6438 7aa2 b6b9 3e1a 3e3d 9cd7 b6b9
000002e0: 7171 da3c 3330 5eb8 e40f 083c ceb8 b6b9
000002f0: 8546 b3b8 0b9f 0238 86d6 b639 a865 73b8
00000300: 34cc b3b8 a599 1839 e2b2 b6b9 b7fc 1639
00000310: 311a 393d d0a7 b6b9 ab68 803d ee92 b3b8
00000320: 4e3a 143e b022 1739 e2c9 1639 09de 2f3e
00000330: 0f76 b3b8 58d1 16b9 ea09 49b7 54c2 153d
00000340: c3ab b639 bbf1 2f3c 3fc2 6638 29ef 16b9
00000350: 7d2d b438 7311 1739 0ba3 e33b 0ec8 b6b9
00000360: b963 7539 095f b1b8 48e5 133a 62cb 16b9
00000370: d53d 7538 7eb0 56b8 f490 cfb8 ad7c 4537
00000380: a74b 1439 fcdd 91b8 0c5f 71b8 6254 a639
00000390: dcb8 0bbc f636 b438 4fc3 d43c f334 cd37
000003a0: e520 0f3c 512b b4b8 3ffd 44b8 aeae 00bd
000003b0: bfeb a4b7 d33d 98b7 d86f b3b7 8dff 18bb
000003c0: 3c45 aab7 7dac 2a3b 577f 2eb6 a27f 0bb9
000003d0: 35d4 0f38 0db6 0437 4af9 ee3b 1b31 1eb9
000003e0: 91ae 66bc f3ce adb6 d950 24bc 0b1c b6b6
000003f0: 3e9f 0eb7 bcdf f036 e079 a9b8 4d32 2eb8

onnx::LSTM_596 f4 [2, 128, 64]
0.00011637485 0.00034865277 -0.00034869963 9.9067496e-05 9.9067576e-05 0.00014398425 -0.00034869972 -0.00034866243
-0.0003486996 0.0003486532 -0.00034869972 0.0003486997 0.00034869954 -0.0003486996 0.0003486997 -0.00034869972
0.00034869957 -0.00014397908 -0.00034869957 -0.00034866293 0.00014398427 0.0003486996 8.592231e-05 0.00034869963
-0.00014398362 0.00014398429 -0.0003486624 -0.0003486527 0.00034869972 -0.00034865347 0.00034866255 0.00014398417
0.00014397029 0.00014391297 9.907097e-05 0.00011640241 -0.00016419866 -0.00034865277 -0.00034868054 0.00034873319
-0.00034860166 -0.00034855978 0.00034869963 -9.910295e-05 -0.00034866255 -8.587947e-05 0.00034847241 -0.0003486526
0.00034855993 0.00034862303 0.00034869963 0.00034869963 9.906597e-05 -0.00014399925 -0.00034865268 -0.00034869963
8.5920954e-05 -9.9067474e-05 0.00034865265 0.0003485223 -0.0003486544 0.00034869972 0.00034865367 0.00034869963
0.00034865362 0.00034865335 0.0003486996 0.00034865344 0.00034869972 -0.00014397985 0.00034869972 -0.0003486997
0.0003486995 -0.00034865335 -0.0003486997 0.00034865364 0.00034865332 -0.00034869948 0.00034865283 -0.00034865347
0.00034865327 -0.00034865338 -0.00034865347 0.0003486534 0.00034869957 0.00034869972 0.00011638075 0.00034865344
9.905672e-05 -0.00014398349 0.00034865335 0.00034865367 0.00034865364 -0.0003486997 0.00034869942 0.00034869974
-0.00014551703 0.00014397092 -9.903121e-05 0.00016426157 -0.00014397225 -0.0003486535 -0.00034869972 8.591579e-05
-8.58907e-05 0.0001439531 0.00034869974 -0.00014405127 0.00034865332 0.00014396555 -9.9181176e-05 -0.00034865347
0.00014398003 -0.00014410031 0.00034865353 -0.00034869972 -0.00034865332 9.9081204e-05 -0.00034865367 -0.00034865338
-0.00034865376 -0.00034865338 0.0003486534 8.5893895e-05 8.57357e-05 -0.00034865344 -0.00034869972 -0.00034869972
-0.00034869963 0.00034865274 0.00034869966 0.00034869972 0.0003486997 0.00034869972 0.0003486995 0.0003486997
-0.00034869945 -0.00034865277 -0.00034869977 -0.0003486997 0.00034869957 -0.00034869934 -0.00034869972 -0.00034869966
0.0003486996 -0.0003486996 -0.00034869972 -0.0003486527 0.00034869963 0.0003486997 -0.0003486999 -0.00034869974
-0.00034868563 0.0003486997 0.00034869963 0.0003486998 -0.00034865356 0.0003486997 0.00034869974 0.00034869948
0.000348647 0.00016412487 -0.0001439776 -0.00014391229 -0.00034865152 -0.00034869972 9.906893e-05 -0.00034871663
-9.916276e-05 -0.0003487047 0.00034869972 -9.909498e-05 -0.0003486997 0.00034880516 -0.00014409597 0.00034869966
-0.00011632317 -0.00014402941 -0.00034869977 -0.0003486997 -0.00014398425 0.00034864715 -0.00014398417 0.0003486997
-0.00034868947 0.0003486997 -0.00034869963 -9.911162e-05 0.0001439902 0.00014398385 -0.00034865277 0.0003486997
-0.00034869948 -0.00034869972 -0.0003486996 -0.00034869954 0.0003486536 9.9071185e-05 0.00034869942 0.0003486997
-0.00014397957 0.00014398177 -0.00034869977 -0.0003486997 0.00034869972 -0.00034869954 -0.00034869972 0.0003486995
-0.00034865306 0.0003486997 0.00034869963 0.0003486997 -0.00034869954 0.00034869954 0.00034869954 -0.00034865356
0.00014400703 0.00034869972 -0.00034869974 0.00034869966 -0.0003486997 0.00034869934 0.00034869963 -0.00034869948
0.00016419661 8.5676395e-05 -0.00014533674 -8.594767e-05 0.00034863723 -0.00034869963 -0.00034869972 -9.90869e-05
0.00014393595 1.2299436e-05 -0.0003486998 -0.00014408006 -0.00034869974 0.00034863973 0.0001438775 -8.592286e-05
0.00014535573 -0.00034859672 -0.00034869957 -0.0003486536 0.0003486998 9.909095e-05 -0.0003486997 0.00034869972
0.00034869974 0.00034869972 0.00014398011 0.00014396894 0.00014400866 0.0003486996 0.00034869974 -0.00034869972
00000000: 460e f438 62cb b639 acd1 b6b9 75c2 cf38
00000010: 80c2 cf38 7afa 1639 afd1 b6b9 aecc b6b9
00000020: abd1 b6b9 71cb b639 afd1 b6b9 aed1 b639
00000030: a9d1 b639 abd1 b6b9 aed1 b639 afd1 b6b9
00000040: aad1 b639 17f9 16b9 aad1 b6b9 bfcc b6b9
00000050: 7cfa 1639 abd1 b639 3031 b438 acd1 b639
00000060: 4ffa 16b9 7dfa 1639 adcc b6b9 60cb b6b9
00000070: afd1 b639 7acb b6b9 b2cc b639 75fa 1639
00000080: bbf6 1639 58e7 1639 52c4 cf38 111d f438
00000090: be2c 2cb9 62cb b6b9 1ccf b6b9 2dd6 b639
000000a0: 86c4 b6b9 e7be b6b9 acd1 b639 7ed5 cfb8
000000b0: b2cc b6b9 301a b4b8 2db3 b639 5ccb b6b9
000000c0: ecbe b639 64c7 b639 acd1 b639 acd1 b639
000000d0: a3c1 cf38 81fe 16b9 5fcb b6b9 acd1 b6b9
000000e0: 7630 b438 72c2 cfb8 5ecb b639 dfb9 b639
000000f0: 9acb b6b9 afd1 b639 81cb b639 acd1 b639
00000100: 7fcb b639 76cb b639 abd1 b639 79cb b639
00000110: afd1 b639 4cf9 16b9 afd1 b639 aed1 b6b9
00000120: a8d1 b639 76cb b6b9 aed1 b6b9 80cb b639
00000130: 75cb b639 a7d1 b6b9 64cb b639 7acb b6b9
00000140: 73cb b639 77cb b6b9 7acb b6b9 78cb b639
00000150: aad1 b639 afd1 b639 7011 f438 79cb b639
00000160: acbc cf38 46fa 16b9 76cb b639 81cb b639
00000170: 80cb b639 aed1 b6b9 a5d1 b639 b0d1 b639
00000180: ee95 18b9 e6f6 1639 faae cfb8 a13d 2c39
00000190: 42f7 16b9 7bcb b6b9 afd1 b6b9 b02d b438
000001a0: 3820 b4b8 1ef2 1639 b0d1 b639 780c 17b9
000001b0: 75cb b639 75f5 1639 7dff cfb8 7acb b6b9
000001c0: 58f9 1639 a219 17b9 7ccb b639 afd1 b6b9
000001d0: 75cb b6b9 d1c9 cf38 81cb b6b9 77cb b6b9
000001e0: 84cb b6b9 77cb b6b9 78cb b639 ef21 b438
000001f0: 01cd b338 79cb b6b9 afd1 b6b9 afd1 b6b9
00000200: acd1 b6b9 61cb b639 add1 b639 afd1 b639
00000210: aed1 b639 afd1 b639 a8d1 b639 aed1 b639
00000220: a6d1 b6b9 62cb b6b9 b1d1 b6b9 aed1 b6b9
00000230: aad1 b639 a2d1 b6b9 afd1 b6b9 add1 b6b9
00000240: abd1 b639 abd1 b6b9 afd1 b6b9 60cb b6b9
00000250: acd1 b639 aed1 b639 b5d1 b6b9 b0d1 b6b9
00000260: cbcf b6b9 aed1 b639 acd1 b639 b2d1 b639
00000270: 7dcb b6b9 aed1 b639 b0d1 b639 a7d1 b639
00000280: 9cca b639 ef18 2c39 b1f8 16b9 29e7 16b9
00000290: 37cb b6b9 afd1 b6b9 3ac3 cf38 f4d3 b6b9
000002a0: 9af5 cfb8 5ad2 b6b9 afd1 b639 36d1 cfb8
000002b0: aed1 b6b9 d6df b639 7818 17b9 add1 b639
000002c0: 87f2 f3b8 9a06 17b9 b1d1 b6b9 aed1 b6b9
000002d0: 7afa 16b9 a1ca b639 75fa 16b9 aed1 b639
000002e0: 4fd0 b6b9 aed1 b639 acd1 b6b9 25da cfb8
000002f0: 13fc 1639 5ffa 1639 62cb b6b9 aed1 b639
00000300: a7d1 b6b9 afd1 b6b9 abd1 b6b9 a9d1 b6b9
00000310: 7ecb b639 70c4 cf38 a5d1 b639 aed1 b639
00000320: 39f9 16b9 d0f9 1639 b1d1 b6b9 aed1 b6b9
00000330: afd1 b639 a9d1 b6b9 afd1 b6b9 a8d1 b639
00000340: 6ccb b6b9 aed1 b639 acd1 b639 aed1 b639
00000350: a9d1 b6b9 a9d1 b639 a9d1 b639 7dcb b6b9
00000360: 9800 1739 afd1 b639 b0d1 b6b9 add1 b639
00000370: aed1 b6b9 a2d1 b639 acd1 b639 a7d1 b6b9
00000380: 312c 2c39 2aad b338 8965 18b9 ce3e b4b8
00000390: 4cc9 b639 acd1 b6b9 afd1 b6b9 e0cc cfb8
000003a0: 83ed 1639 ad59 4e37 b2d1 b6b9 3214 17b9
000003b0: b0d1 b6b9 a2c9 b639 d3dd 1639 7c31 b4b8
000003c0: a26a 1839 dcc3 b6b9 aad1 b6b9 7ecb b6b9
000003d0: b2d1 b639 0ccf cf38 aed1 b6b9 afd1 b639
000003e0: b0d1 b639 afd1 b639 5ef9 1639 5ef6 1639
000003f0: 0801 1739 abd1 b639 b0d1 b639 afd1 b6b9

onnx::LSTM_597 f4 [2, 128, 32]
0.00034869663 -0.00034869972 0.00014398407 0.00034869972 0.00014397205 -0.00034869963 0.00034864826 -0.00034869972
-8.593043e-05 0.00034869972 0.0003486947 0.00034874104 -0.0003486997 0.00034865277 0.00034865265 0.00034862655
-0.00014398395 -0.00034867332 -0.00034869972 0.00034867483 0.00034865335 8.592279e-05 -0.00034871342 -0.0003486539
0.00034866246 -0.00034869963 0.00034869942 9.906573e-05 0.0003486997 -0.0003486997 -0.00034869972 0.00034869972
0.00034869972 -9.906746e-05 -0.00034869972 -9.9067285e-05 -0.000164203 -0.00014398505 -0.00016421835 -0.00034865338
0.00011636787 -0.00034869972 0.00034869972 -8.593718e-05 0.00034869972 -0.00034869972 -0.00034865338 0.000143977
-0.00034869972 9.907162e-05 -0.00034869972 0.00034869972 0.00034869972 0.0003486997 8.593072e-05 -0.00034869972
-0.00034874264 -0.0003486997 0.00034869745 0.00034869972 -0.00034865338 0.00034869966 0.00034865338 0.00034869972
-0.0003486532 -0.00034869972 0.00014402092 -0.00034869972 -9.904869e-05 -0.00034869972 0.00016420062 0.00034869972
0.00014395994 -0.0003486997 0.0003486997 0.00011632505 -0.0003486997 0.0003486997 0.00034869966 -0.00034869046
-0.00034869972 -0.00014398119 0.00034869966 -0.0003486539 -0.00034869972 -0.00034869972 -9.905336e-05 0.00034869974
-0.0003486577 0.00034869972 -0.00034870155 -0.00034865335 -0.00034869972 -0.00034869972 -0.00034869972 0.00034869972
0.0003486997 -0.0003486998 0.00034869966 -0.00034865527 0.00011636506 -0.00034865338 0.0001642067 0.00034869972
0.0003486159 0.00034869972 0.00034865265 8.5910906e-05 -0.00034869972 -0.00034869972 -0.0003486997 0.00014398506
0.00034869972 -0.00034865338 0.00034869972 -0.00034869972 0.00034869972 -0.00034869972 0.00034871645 0.0003486997
-8.593399e-05 -0.00034869972 -0.00034869177 0.0003486997 -0.00034869972 -0.00034869972 8.592389e-05 0.00034869972
-4.264776e-05 1.3430394e-05 0.000116509786 0.00018484262 -0.0009318272 -0.00034961491 0.0002331314 -0.00012083288
-4.0477462e-05 -0.00017435208 0.0001494436 0.00026313576 -4.587523e-05 0.00011742644 -1.9699533e-05 -4.1132702e-05
-3.4797744e-05 -0.0007140542 0.00010211794 4.3758802e-05 -0.00022516424 0.00035257576 -0.0012802479 -6.173513e-05
0.00031077286 0.00021579901 -0.00011637829 -1.5601949e-05 -8.298848e-05 0.00011420018 -0.00016846732 -0.00011909093
0.00034869972 -0.00034865344 -0.00034869972 -9.906903e-05 9.904892e-05 0.0001439828 -8.593983e-05 -0.00034869972
-9.909644e-05 0.00034869972 -0.0003486527 -8.59424e-05 -0.00034869972 -0.00034869972 0.00034865335 0.00034866956
0.00034869972 -0.00014398723 -0.00034869972 -0.00034869972 0.00034869972 0.00034869972 -0.00011638164 0.00034869972
9.90753e-05 -0.00034869972 0.000348751 -0.00034869972 0.0003486997 -0.00034869963 -0.0003486997 -0.00034869972
-3.6803587e-05 -0.00013009291 -9.516188e-07 -1.4586147e-05 0.00025784064 0.000117473464 -0.0017410817 0.0001475221
0.012304746 -7.635454e-05 0.00036172508 -0.003420672 5.569043e-05 0.00034612283 1.2182638e-05 0.0005462558
-0.0003651525 0.0010036884 -3.0779807e-05 7.817376e-05 -2.0087631e-05 5.6419347e-05 -0.00013913753 9.093703e-05
1.2787683e-06 1.5229192e-05 0.00016125778 0.0003395965 -0.00011817157 2.5717924e-05 -4.6254223e-05 9.5643365e-05
-0.00034869963 -0.00034869963 0.00034869972 -0.00034869972 -5.4536744e-05 -0.00034869957 0.00016421314 -0.00012846287
8.591177e-05 -0.00034869972 -0.00034869972 -0.0001439672 0.0003486997 -0.00034869972 -0.00034865353 0.00021901434
0.00034869972 -0.000116389536 -0.00034864908 0.00034869963 0.00034869963 -0.00034869972 9.899972e-05 0.0003486996
0.00011638615 0.000348699 -0.00034873953 0.00034869957 0.00034865347 0.00014398532 -0.00034869957 0.00014548919
00000000: 45d1 b639 afd1 b6b9 6efa 1639 afd1 b639
00000010: 34f7 1639 acd1 b6b9 c7ca b639 afd1 b6b9
00000020: 8c35 b4b8 afd1 b639 03d1 b639 3bd7 b639
00000030: aed1 b6b9 62cb b639 5ecb b639 ddc7 b639
00000040: 66fa 16b9 24ce b6b9 afd1 b6b9 58ce b639
00000050: 76cb b639 7231 b438 86d3 b6b9 89cb b6b9
00000060: afcc b639 acd1 b6b9 a5d1 b639 82c1 cf38
00000070: aed1 b639 aed1 b6b9 afd1 b6b9 afd1 b639
00000080: afd1 b639 70c2 cfb8 afd1 b6b9 58c2 cfb8
00000090: e82d 2cb9 b1fa 16b9 0732 2cb9 77cb b6b9
000000a0: 860a f438 afd1 b6b9 afd1 b639 2c39 b4b8
000000b0: afd1 b639 afd1 b6b9 77cb b6b9 88f8 1639
000000c0: afd1 b6b9 acc4 cf38 afd1 b6b9 afd1 b639
000000d0: afd1 b639 aed1 b639 b435 b438 afd1 b6b9
000000e0: 72d7 b6b9 aed1 b6b9 61d1 b639 afd1 b639
000000f0: 77cb b6b9 add1 b639 77cb b639 afd1 b639
00000100: 71cb b6b9 afd1 b6b9 5204 1739 afd1 b6b9
00000110: 5cb8 cfb8 afd1 b6b9 452d 2c39 afd1 b639
00000120: f4f3 1639 aed1 b6b9 aed1 b639 89f3 f338
00000130: aed1 b6b9 aed1 b639 add1 b639 71d0 b6b9
00000140: afd1 b6b9 a8f9 16b9 add1 b639 89cb b6b9
00000150: afd1 b6b9 afd1 b6b9 deba cfb8 b0d1 b639
00000160: 0bcc b6b9 afd1 b639 eed1 b6b9 76cb b6b9
00000170: afd1 b6b9 afd1 b6b9 afd1 b6b9 afd1 b639
00000180: aed1 b639 b2d1 b6b9 add1 b639 b8cb b6b9
00000190: 0409 f438 77cb b6b9 e72e 2c39 afd1 b639
000001a0: 6fc6 b639 afd1 b639 5ecb b639 112b b438
000001b0: afd1 b6b9 afd1 b6b9 aed1 b6b9 b2fa 1639
000001c0: afd1 b639 77cb b6b9 afd1 b639 afd1 b6b9
000001d0: afd1 b639 afd1 b6b9 eed3 b639 aed1 b639
000001e0: 7637 b4b8 afd1 b6b9 9ed0 b6b9 aed1 b639
000001f0: afd1 b6b9 afd1 b6b9 0a32 b438 afd1 b639
00000200: afe0 32b8 1a53 6137 b756 f438 50d2 4139
00000210: dd45 74ba 854c b7b9 bc74 7439 a967 fdb8
00000220: 58c6 29b8 48d2 36b9 f6b3 1c39 7cf5 8939
00000230: 276a 40b8 d742 f638 6d40 a5b7 e785 2cb8
00000240: cbf3 11b8 5e2f 3bba 2728 d638 a889 3738
00000250: 111a 6cb9 ebd9 b839 fecd a7ba cc77 81b8
00000260: 3aef a239 1b48 6239 1e10 f4b8 eee0 82b7
00000270: 1a0a aeb8 c17e ef38 9aa6 30b9 75c0 f9b8
00000280: afd1 b639 79cb b6b9 afd1 b6b9 48c3 cfb8
00000290: 7cb8 cf38 17fa 1639 983a b4b8 afd1 b6b9
000002a0: ffd1 cfb8 afd1 b639 60cb b6b9 fa3b b4b8
000002b0: afd1 b6b9 afd1 b6b9 76cb b639 a3cd b639
000002c0: afd1 b639 47fb 16b9 afd1 b6b9 afd1 b6b9
000002d0: afd1 b639 afd1 b639 eb11 f4b8 afd1 b639
000002e0: a6c6 cf38 afd1 b6b9 91d8 b639 afd1 b6b9
000002f0: aed1 b639 acd1 b6b9 aed1 b6b9 afd1 b6b9
00000300: 8d5d 1ab8 8d69 08b9 bf72 7fb5 06b7 74b7
00000310: c92e 8739 165c f638 0235 e4ba 2ab0 1a39
00000320: d899 493c 8820 a0b8 eba5 bd39 5a2d 60bb
00000330: 2595 6938 d277 b539 0864 4c37 9b32 0f3a
00000340: f071 bfb9 328e 833a 9119 01b8 38f1 a338
00000350: dc81 a8b7 d0a3 6c38 72e5 11b9 72b5 be38
00000360: 25a2 ab35 e280 7f37 4e17 2939 df0b b239
00000370: e1d2 f7b8 d2bc d737 1801 42b8 2494 c838
00000380: acd1 b6b9 acd1 b6b9 afd1 b639 afd1 b6b9
00000390: 62be 64b8 aad1 b6b9 a130 2c39 fdb3 06b9
000003a0: 882b b438 afd1 b6b9 afd1 b6b9 e7f5 16b9
000003b0: aed1 b639 afd1 b6b9 7ccb b6b9 37a7 6539
000003c0: afd1 b639 2816 f4b8 e3ca b6b9 acd1 b639
000003d0: acd1 b639 afd1 b6b9 129e cf38 abd1 b639
000003e0: 5714 f438 96d1 b639 07d7 b6b9 aad1 b639
000003f0: 7acb b639 c4fa 1639 aad1 b6b9 758e 1839
