system_ext/etc/modem/game.tflite (tflite, 213400 bytes, 20 tensors)

tfl.pseudo_qconst1 i1 [2, 64]
000000 2b 05 52 3e f5 3c 22 ba 0a c9 c8 0d 0a 39 c6 0b
       43 5 82 62 -11 60 34 -70 10 -55 -56 13 10 57 -58 11
000010 81 31 8a 41 54 38 e9 d0 48 11 e0 22 ed 20 c7 ec
       -127 49 -118 65 84 56 -23 -48 72 17 -32 34 -19 32 -57 -20
000020 9d 08 32 38 3d 1a 02 31 2a 61 ef 01 40 ae 47 d1
       -99 8 50 56 61 26 2 49 42 97 -17 1 64 -82 71 -47
000030 42 5c f5 ed 98 fe 1f 59 58 19 fe 9b 41 d2 e3 9f
       66 92 -11 -19 -104 -2 31 89 88 25 -2 -101 65 -46 -29 -97
000040 ba c5 0e d0 2b f9 27 f2 ca 1e 1f cd ef 01 2c ff
       -70 -59 14 -48 43 -7 39 -14 -54 30 31 -51 -17 1 44 -1
000050 2b d7 67 d7 ff a2 c7 40 b5 f3 17 f8 e6 2b 07 03
       43 -41 103 -41 -1 -94 -57 64 -75 -13 23 -8 -26 43 7 3
000060 43 29 06 c7 d4 e4 bf 33 ee fc 06 11 ee 7f d9 ef
       67 41 6 -57 -44 -28 -65 51 -18 -4 6 17 -18 127 -39 -17
000070 c8 ee bf e7 59 f2 e1 ad c1 c1 c1 2a f9 14 e5 4c
       -56 -18 -65 -25 89 -14 -31 -83 -63 -63 -63 42 -7 20 -27 76

tfl.pseudo_qconst3 i1 [64, 64]
000000 32 2f 9b b1 6b 45 d4 fa 00 61 42 34 24 13 46 9a
       50 47 -101 -79 107 69 -44 -6 0 97 66 52 36 19 70 -102
000010 b3 e9 9d 0d 29 61 fb bb a5 62 0c 6a 13 0c 81 35
       -77 -23 -99 13 41 97 -5 -69 -91 98 12 106 19 12 -127 53
000020 83 88 32 d1 f7 52 4b 05 61 3e e3 f1 51 45 3f 0c
       -125 -120 50 -47 -9 82 75 5 97 62 -29 -15 81 69 63 12
000030 0b 2f 3d d3 c5 d4 d5 b9 de d0 ad a9 f5 e7 c5 0f
       11 47 61 -45 -59 -44 -43 -71 -34 -48 -83 -87 -11 -25 -59 15
000040 b2 e2 42 5a 50 b1 bd 42 fa 57 02 65 09 cb 16 22
       -78 -30 66 90 80 -79 -67 66 -6 87 2 101 9 -53 22 34
000050 f6 b7 19 eb f7 3c d4 03 e6 57 f1 e8 e3 2c 7f 61
       -10 -73 25 -21 -9 60 -44 3 -26 87 -15 -24 -29 44 127 97
000060 a7 37 d5 06 05 4a 12 cf 55 78 15 50 dc f0 37 3d
       -89 55 -43 6 5 74 18 -49 85 120 21 80 -36 -16 55 61
000070 e5 59 49 a7 b7 db 51 f4 3a 29 16 fa 28 b1 ac c0
       -27 89 73 -89 -73 -37 81 -12 58 41 22 -6 40 -79 -84 -64
000080 16 ad 4b 19 b0 fb ad 30 4c 3e f6 c7 9f b3 69 b8
       22 -83 75 25 -80 -5 -83 48 76 62 -10 -57 -97 -77 105 -72
000090 94 a1 bd 96 4f e3 97 b6 83 42 69 e5 d7 d0 ff 22
       -108 -95 -67 -106 79 -29 -105 -74 -125 66 105 -27 -41 -48 -1 34
0000a0 e6 15 ae 98 b8 7f 33 52 22 0d 97 26 e6 3b 39 68
       -26 21 -82 -104 -72 127 51 82 34 13 -105 38 -26 59 57 104
0000b0 98 69 5c 33 f8 03 62 4c b2 fa bc 3f 8b b0 5d 31
       -104 105 92 51 -8 3 98 76 -78 -6 -68 63 -117 -80 93 49
0000c0 0a b3 37 d8 d9 ce ad da c1 e8 0f 5d 3e b5 14 1d
       10 -77 55 -40 -39 -50 -83 -38 -63 -24 15 93 62 -75 20 29
0000d0 72 d4 e4 e1 70 40 36 19 c4 36 f4 4a d7 e4 35 36
       114 -44 -28 -31 112 64 54 25 -60 54 -12 74 -41 -28 53 54
0000e0 0d eb 49 0c bd d7 4e 4f 37 f1 30 db a4 14 09 c2
       13 -21 73 12 -67 -41 78 79 55 -15 48 -37 -92 20 9 -62
0000f0 0f b0 09 37 05 50 19 31 d1 7f fc 3f db ca ea 3f
       15 -80 9 55 5 80 25 49 -47 127 -4 63 -37 -54 -22 63

tfl.pseudo_qconst4 i1 [1, 1, 64] scale=0.003748755 zero_point=-29
000000 e7 d8 df e2 e1 da e1 da b2 e8 de d4 e6 e1 0d e7
       0.01499502 -0.041236304 -0.01499502 -0.003748755 -0.00749751 -0.033738796 -0.00749751 -0.033738796 -0.183689 0.018743776 -0.018743776 -0.056231324 0.011246265 -0.00749751 0.15744771 0.01499502
000010 6a dd e3 e6 e4 df e3 de 7f db e2 ed 29 d8 a9 80
       0.50608194 -0.02249253 0.0 0.011246265 0.003748755 -0.01499502 0.0 -0.018743776 0.5848058 -0.02999004 -0.003748755 0.03748755 0.26241285 -0.041236304 -0.21742779 -0.37112674
000020 44 db d5 e2 1d ec ad 12 a8 d0 e7 e1 d2 e3 e9 ee
       0.36362922 -0.02999004 -0.052482568 -0.003748755 0.21742779 0.033738796 -0.20243277 0.17619148 -0.22117655 -0.07122634 0.01499502 -0.00749751 -0.06372883 0.0 0.02249253 0.041236304
000030 b6 da 0d e0 cc de da 0e 31 16 e0 d5 27 df e2 e7
       -0.16869397 -0.033738796 0.15744771 -0.011246265 -0.08622137 -0.018743776 -0.033738796 0.16119647 0.2924029 0.1911865 -0.011246265 -0.052482568 0.25491533 -0.01499502 -0.003748755 0.01499502

tfl.pseudo_qconst6 i1 [64, 1, 21, 48]
000000 37 ce 01 37 cf bf cc 0b ba 1a d7 42 f0 2c cd c2
       55 -50 1 55 -49 -65 -52 11 -70 26 -41 66 -16 44 -51 -62
000010 b7 0f c7 2a c1 c3 c9 38 51 e4 54 be 42 21 0b b1
       -73 15 -57 42 -63 -61 -55 56 81 -28 84 -66 66 33 11 -79
000020 e6 00 21 c4 eb 06 f7 11 c2 eb 46 eb b9 dd b4 f5
       -26 0 33 -60 -21 6 -9 17 -62 -21 70 -21 -71 -35 -76 -11
000030 f0 27 0f 0c 46 50 46 b1 ee 3c cd 13 4c 4c f8 44
       -16 39 15 12 70 80 70 -79 -18 60 -51 19 76 76 -8 68
000040 2f fc 2b 2c 2a 35 c6 c7 3c 02 bb db 30 af bc 45
       47 -4 43 44 42 53 -58 -57 60 2 -69 -37 48 -81 -68 69
000050 ce 29 ba f7 3b 3e fe e6 d5 02 05 e5 3f c0 2d 43
       -50 41 -70 -9 59 62 -2 -26 -43 2 5 -27 63 -64 45 67
000060 f4 31 d4 d0 e4 b0 38 4a d5 b9 27 50 bd ff 04 4e
       -12 49 -44 -48 -28 -80 56 74 -43 -71 39 80 -67 -1 4 78
000070 e4 27 e4 3b 31 1d 27 1b de e8 d8 32 38 ef e0 ea
       -28 39 -28 59 49 29 39 27 -34 -24 -40 50 56 -17 -32 -22
000080 03 d2 d0 d2 33 f8 2f d0 29 d0 28 49 b0 47 fb 3c
       3 -46 -48 -46 51 -8 47 -48 41 -48 40 73 -80 71 -5 60
000090 d6 00 3a db bf 18 02 15 2f b0 f0 c5 b0 49 b5 31
       -42 0 58 -37 -65 24 2 21 47 -80 -16 -59 -80 73 -75 49
0000a0 d6 af 26 f3 1d ad 01 bc 31 12 18 ea 1e be 2c fd
       -42 -81 38 -13 29 -83 1 -68 49 18 24 -22 30 -66 44 -3
0000b0 d3 24 46 b6 d1 24 b1 50 27 ee af 11 1a 07 05 54
       -45 36 70 -74 -47 36 -79 80 39 -18 -81 17 26 7 5 84
0000c0 13 06 e5 12 13 04 47 17 d1 15 28 21 de 53 3c 06
       19 6 -27 18 19 4 71 23 -47 21 40 33 -34 83 60 6
0000d0 30 c1 e9 df 51 d4 0f 36 4e 21 04 48 c8 fb 33 19
       48 -63 -23 -33 81 -44 15 54 78 33 4 72 -56 -5 51 25
0000e0 37 b7 be eb 23 d9 ca 10 c2 06 dd 3b f8 e7 00 07
       55 -73 -66 -21 35 -39 -54 16 -62 6 -35 59 -8 -25 0 7
0000f0 50 2d 04 f0 d3 b6 e0 c6 0e 38 e7 3e 25 0f 19 ed
       80 45 4 -16 -45 -74 -32 -58 14 56 -25 62 37 15 25 -19

tfl.pseudo_qconst7 i1 [1, 1, 48] scale=0.0050464296 zero_point=-104
000000 94 9e 96 98 98 b1 ad 9b 98 ac 90 98 98 8e 95 98
       -0.020185718 0.030278578 -0.010092859 0.0 0.0 0.12616074 0.105975024 0.015139289 0.0 0.10092859 -0.040371437 0.0 0.0 -0.050464295 -0.015139289 0.0
000010 80 93 97 98 ae 91 0e 8c 98 98 98 95 b1 7f 98 b4
       -0.12111431 -0.025232147 -0.0050464296 0.0 0.11102145 -0.035325006 0.5954787 -0.060557157 0.0 0.0 0.0 -0.015139289 0.12616074 1.1657252 0.0 0.14130002
000020 de a9 a8 89 99 90 99 96 91 ac 94 97 8d 98 98 99
       0.35325006 0.0857893 0.08074287 -0.075696446 0.0050464296 -0.040371437 0.0050464296 -0.010092859 -0.035325006 0.10092859 -0.020185718 -0.0050464296 -0.055510726 0.0 0.0 0.0050464296

tfl.pseudo_qconst8 i1 [48, 1, 21, 48]
000000 d5 c5 44 42 21 e7 54 3a fc 12 e3 fa 63 ec 2a 48
       -43 -59 68 66 33 -25 84 58 -4 18 -29 -6 99 -20 42 72
000010 d3 f7 e0 00 63 ea 3f 30 ed 32 b2 e9 23 c6 0e e3
       -45 -9 -32 0 99 -22 63 48 -19 50 -78 -23 35 -58 14 -29
000020 d3 f7 42 2c 30 ae b5 ad 5b 37 fb d7 d8 b1 a9 ba
       -45 -9 66 44 48 -82 -75 -83 91 55 -5 -41 -40 -79 -87 -70
000030 60 1a 4c c7 22 d3 27 b8 11 c6 3b 27 57 e5 a1 e5
       96 26 76 -57 34 -45 39 -72 17 -58 59 39 87 -27 -95 -27
000040 e6 a4 26 11 d3 e5 01 46 a6 9f 5f f1 61 b4 58 9f
       -26 -92 38 17 -45 -27 1 70 -90 -97 95 -15 97 -76 88 -97
000050 dc ce 2f 9f 4c aa a3 54 02 d8 28 e5 2e 20 08 f3
       -36 -50 47 -97 76 -86 -93 84 2 -40 40 -27 46 32 8 -13
000060 bb f3 4c 11 aa 3a 00 09 c9 4a bd 0b ec 54 b9 28
       -69 -13 76 17 -86 58 0 9 -55 74 -67 11 -20 84 -71 40
000070 e1 d7 c7 4a f0 bc d0 bf e6 e3 b1 0b 58 f1 ef 14
       -31 -41 -57 74 -16 -68 -48 -65 -26 -29 -79 11 88 -15 -17 20
000080 c5 46 9d 9d 62 60 ec 58 f3 08 45 e1 f1 4b 5f e1
       -59 70 -99 -99 98 96 -20 88 -13 8 69 -31 -15 75 95 -31
000090 c8 47 45 a1 c2 1a 23 9f 08 f3 31 fb b6 4a da 3d
       -56 71 69 -95 -62 26 35 -97 8 -13 49 -5 -74 74 -38 61
0000a0 ce f2 55 fb e9 30 37 25 9e a1 a5 46 41 d7 18 07
       -50 -14 85 -5 -23 48 55 37 -98 -95 -91 70 65 -41 24 7
0000b0 bb 4d 45 5f 26 c4 22 f1 ec 27 49 3b 29 58 cf 5c
       -69 77 69 95 38 -60 34 -15 -20 39 73 59 41 88 -49 92
0000c0 d6 e7 f9 5b 28 08 29 60 c3 12 b7 48 0f dc d3 35
       -42 -25 -7 91 40 8 41 96 -61 18 -73 72 15 -36 -45 53
0000d0 d0 fb b8 4d 24 51 ec 3b 55 45 29 16 63 ce ba a1
       -48 -5 -72 77 36 81 -20 59 85 69 41 22 99 -50 -70 -95
0000e0 40 ca 60 09 37 ed 06 cb bb 9f d8 3d 46 d9 2f a9
       64 -54 96 9 55 -19 6 -53 -69 -97 -40 61 70 -39 47 -87
0000f0 4e be 52 62 31 49 ea 3f f8 20 14 9e 13 f5 a1 e1
       78 -66 82 98 49 73 -22 63 -8 32 20 -98 19 -11 -95 -31

tfl.pseudo_qconst9 i1 [1, 1, 48] scale=0.0013512754 zero_point=-72
000000 b6 20 c3 aa 80 b4 d6 b9 95 b8 a1 b4 b7 b1 cb b4
       -0.0027025507 0.14053264 0.014864029 -0.018917855 -0.07567142 -0.0054051015 0.040538263 0.0013512754 -0.04729464 0.0 -0.031079333 -0.0054051015 -0.0013512754 -0.009458927 0.025674231 -0.0054051015
000010 bb b4 f7 52 b7 b5 b3 7f b9 e1 ac b0 c3 d8 d5 83
       0.004053826 -0.0054051015 0.08513035 0.2080964 -0.0013512754 -0.004053826 -0.006756377 0.2689038 0.0013512754 0.05540229 -0.016215304 -0.010810203 0.014864029 0.04324081 0.039186984 -0.071617596
000020 c0 b2 b6 b7 ad c4 3f b8 b4 b4 ee b8 a6 ba a9 b4
       0.010810203 -0.008107652 -0.0027025507 -0.0013512754 -0.014864029 0.016215304 0.18242218 0.0 -0.0054051015 -0.0054051015 0.07296887 0.0 -0.024322957 0.0027025507 -0.020269131 -0.0054051015

tfl.pseudo_qconst12 i1 [48, 1, 17, 32]
000000 ee f8 0d 1c 16 18 1a 15 0b fd 1a fd 01 10 ec 0a
       -18 -8 13 28 22 24 26 21 11 -3 26 -3 1 16 -20 10
000010 0e e7 fd 19 15 f3 1c f1 09 01 fd f5 f7 ea 0a 0b
       14 -25 -3 25 21 -13 28 -15 9 1 -3 -11 -9 -22 10 11
000020 e7 10 ff eb 0d 08 16 eb 15 f5 07 1b 06 04 f2 ee
       -25 16 -1 -21 13 8 22 -21 21 -11 7 27 6 4 -14 -18
000030 f1 0d fc 16 0e 04 e9 ee f8 e9 fe 15 f1 f8 13 15
       -15 13 -4 22 14 4 -23 -18 -8 -23 -2 21 -15 -8 19 21
000040 fa f2 03 eb e5 f0 e4 f2 e5 e7 12 08 fe 0b 04 eb
       -6 -14 3 -21 -27 -16 -28 -14 -27 -25 18 8 -2 11 4 -21
000050 15 13 0c 13 fd 11 0c f8 17 e8 14 fe ed ee f4 09
       21 19 12 19 -3 17 12 -8 23 -24 20 -2 -19 -18 -12 9
000060 f0 f8 f8 17 17 f3 12 f6 06 fe f8 07 00 ee 1a 1c
       -16 -8 -8 23 23 -13 18 -10 6 -2 -8 7 0 -18 26 28
000070 04 03 f4 fa 05 ed 0f ef f5 f9 e6 f7 10 0c 04 0c
       4 3 -12 -6 5 -19 15 -17 -11 -7 -26 -9 16 12 4 12
000080 1b e3 f7 0d 0b 0d fa 07 ef f2 ed 07 f2 e3 14 f9
       27 -29 -9 13 11 13 -6 7 -17 -14 -19 7 -14 -29 20 -7
000090 f3 f2 19 03 0c e8 03 f0 01 ec 13 fc 16 f7 09 01
       -13 -14 25 3 12 -24 3 -16 1 -20 19 -4 22 -9 9 1
0000a0 ff f8 ef fa fb f8 ea fc 1c ed 15 17 13 10 ef 1c
       -1 -8 -17 -6 -5 -8 -22 -4 28 -19 21 23 19 16 -17 28
0000b0 19 0a 0d fa f0 f5 e6 f5 00 1c fc 07 f6 03 08 0e
       25 10 13 -6 -16 -11 -26 -11 0 28 -4 7 -10 3 8 14
0000c0 fe ed 16 06 1d 03 04 ef 1b 00 e5 0e 0b fb fd ff
       -2 -19 22 6 29 3 4 -17 27 0 -27 14 11 -5 -3 -1
0000d0 16 f1 f2 06 eb 0b f0 16 02 16 f5 f0 ee 14 eb 02
       22 -15 -14 6 -21 11 -16 22 2 22 -11 -16 -18 20 -21 2
0000e0 f1 e6 fd fe 0a f2 eb ec eb f8 1a f3 1c f2 09 f1
       -15 -26 -3 -2 10 -14 -21 -20 -21 -8 26 -13 28 -14 9 -15
0000f0 09 e5 17 f5 16 1c 10 fb 0c 02 0c 03 f6 01 0f 07
       9 -27 23 -11 22 28 16 -5 12 2 12 3 -10 1 15 7

tfl.pseudo_qconst13 i1 [1, 1, 32] scale=0.0014564266 zero_point=-111
000000 98 e3 ab 8e 89 90 91 f6 92 a5 38 80 91 84 8e c6
       0.010194986 0.11942698 0.03786709 -0.00436928 -0.011651413 -0.0014564266 0.0 0.14709908 0.0014564266 0.029128531 0.24322324 -0.024759252 0.0 -0.018933546 -0.00436928 0.07719061
000010 92 9e b2 96 96 8e be 91 8e 8e 8e 49 c9 7f 91 fc
       0.0014564266 0.018933546 0.04806208 0.0072821327 0.0072821327 -0.00436928 0.065539196 0.0 -0.00436928 -0.00436928 -0.00436928 0.26798248 0.08155989 0.34662953 0.0 0.15583764

tfl.pseudo_qconst14 i1 [32, 1, 17, 32]
000000 ee 0a 0e f3 0c 11 f4 ee f1 0e 03 fa 00 f4 11 0a
       -18 10 14 -13 12 17 -12 -18 -15 14 3 -6 0 -12 17 10
000010 ff 0d 08 fa fc 0a 01 0f fb 13 f5 f6 f2 11 f0 fc
       -1 13 8 -6 -4 10 1 15 -5 19 -11 -10 -14 17 -16 -4
000020 fc 00 f3 08 0f ed 10 0b f2 f5 04 fe ee f0 10 09
       -4 0 -13 8 15 -19 16 11 -14 -11 4 -2 -18 -16 16 9
000030 0e ed ee f7 f7 f8 fc fa f3 ee f1 0a f2 00 03 f4
       14 -19 -18 -9 -9 -8 -4 -6 -13 -18 -15 10 -14 0 3 -12
000040 f5 06 f5 07 f6 0e f6 0e fa f0 f8 f1 0b 0c 09 01
       -11 6 -11 7 -10 14 -10 14 -6 -16 -8 -15 11 12 9 1
000050 fe 11 f0 0e 05 fe 0f 0c f0 ef f6 06 f5 04 0e 13
       -2 17 -16 14 5 -2 15 12 -16 -17 -10 6 -11 4 14 19
000060 fc f8 f6 f5 f8 fe 03 0a fa 0a 12 03 ee 0c 03 fa
       -4 -8 -10 -11 -8 -2 3 10 -6 10 18 3 -18 12 3 -6
000070 0e fa f1 08 0a f6 0a ee f5 f4 07 0a f6 06 f4 f8
       14 -6 -15 8 10 -10 10 -18 -11 -12 7 10 -10 6 -12 -8
000080 ff f8 fa 0b f2 f6 02 0e fb 02 f7 07 f3 10 f1 ee
       -1 -8 -6 11 -14 -10 2 14 -5 2 -9 7 -13 16 -15 -18
000090 fc f8 12 0b 12 f7 ee ff 02 01 0d 0e fb fa 0e f8
       -4 -8 18 11 18 -9 -18 -1 2 1 13 14 -5 -6 14 -8
0000a0 f4 f3 f3 fe fa f8 ed 0b 10 f2 06 f8 f2 fb f7 fc
       -12 -13 -13 -2 -6 -8 -19 11 16 -14 6 -8 -14 -5 -9 -4
0000b0 fa 07 11 f9 fc fd fd 00 f7 0f 05 03 f1 f3 12 12
       -6 7 17 -7 -4 -3 -3 0 -9 15 5 3 -15 -13 18 18
0000c0 f3 ed f7 13 01 12 fa ed 0c 0b f7 0c 13 0e 0c 02
       -13 -19 -9 19 1 18 -6 -19 12 11 -9 12 19 14 12 2
0000d0 fa 0b f9 0e 08 fb f1 05 ee fb 05 fb 01 0b f9 0f
       -6 11 -7 14 8 -5 -15 5 -18 -5 5 -5 1 11 -7 15
0000e0 f7 0b f8 f5 0a e8 f3 f2 f6 ed f2 08 fb f8 00 bf
       -9 11 -8 -11 10 -24 -13 -14 -10 -19 -14 8 -5 -8 0 -65
0000f0 12 f4 15 f7 01 f0 e1 a3 fe f5 e0 05 f6 f7 fa ee
       18 -12 21 -9 1 -16 -31 -93 -2 -11 -32 5 -10 -9 -6 -18

tfl.pseudo_qconst15 i1 [1, 1, 32] scale=0.0040273936 zero_point=-113
000000 8d d6 90 8e 8f 80 90 90 94 b9 8f 85 8e 92 8f 81
       -0.008054787 0.28594494 0.0040273936 -0.0040273936 0.0 -0.060410906 0.0040273936 0.0040273936 0.020136967 0.16915053 0.0 -0.040273935 -0.0040273936 0.012082181 0.0 -0.056383513
000010 8c 8d 8e 91 7f 80 81 86 8b 8f a6 86 8c cc 8f 0b
       -0.012082181 -0.008054787 -0.0040273936 0.008054787 0.9665745 -0.060410906 -0.056383513 -0.036246542 -0.016109575 0.0 0.09263005 -0.036246542 -0.012082181 0.24567102 0.0 0.4993968

tfl.pseudo_qconst18 i1 [32, 1, 15, 24]
000000 9f f6 ea 0a 22 e0 96 59 29 1d 14 5a f4 cc 76 ff
       -97 -10 -22 10 34 -32 -106 89 41 29 20 90 -12 -52 118 -1
000010 00 de 09 2a 42 e0 f8 02 fd e3 e2 53 d6 95 0c 9a
       0 -34 9 42 66 -32 -8 2 -3 -29 -30 83 -42 -107 12 -102
000020 27 d0 91 d8 9c 98 66 4d 3a a2 10 c1 e1 a0 9d c7
       39 -48 -111 -40 -100 -104 102 77 58 -94 16 -63 -31 -96 -99 -57
000030 af a7 68 b9 d8 da 90 34 d6 02 95 ac 70 93 05 fa
       -81 -89 104 -71 -40 -38 -112 52 -42 2 -107 -84 112 -109 5 -6
000040 1b c3 11 58 0c a9 21 f9 55 b8 5b 05 63 6a 5f 1f
       27 -61 17 88 12 -87 33 -7 85 -72 91 5 99 106 95 31
000050 43 b8 77 5e f7 55 40 14 91 25 e4 bc 16 9b 23 ec
       67 -72 119 94 -9 85 64 20 -111 37 -28 -68 22 -101 35 -20
000060 fd f0 dc e1 35 2a dc 2a 49 41 18 6d 22 19 bc c3
       -3 -16 -36 -31 53 42 -36 42 73 65 24 109 34 25 -68 -61
000070 b5 52 68 96 20 bd 93 96 d3 87 fc c0 5c 75 ab 4b
       -75 82 104 -106 32 -67 -109 -106 -45 -121 -4 -64 92 117 -85 75
000080 02 43 99 c3 8b 17 8a b2 bd 81 a2 40 e4 a5 ef 39
       2 67 -103 -61 -117 23 -118 -78 -67 -127 -94 64 -28 -91 -17 57
000090 45 29 af 49 34 af dd 9a 51 d0 3f 9f 62 c7 46 bd
       69 41 -81 73 52 -81 -35 -102 81 -48 63 -97 98 -57 70 -67
0000a0 46 30 4d 2c 58 a4 ab 9c 2a 96 8b a0 26 06 af 50
       70 48 77 44 88 -92 -85 -100 42 -106 -117 -96 38 6 -81 80
0000b0 40 00 bc fd d1 c6 12 f8 9d 08 2d b3 3f 28 6e a8
       64 0 -68 -3 -47 -58 18 -8 -99 8 45 -77 63 40 110 -88
0000c0 92 af bc 32 5e bc 20 5f ba ed e3 f6 2b 98 75 25
       -110 -81 -68 50 94 -68 32 95 -70 -19 -29 -10 43 -104 117 37
0000d0 3f 43 a0 ab 96 f5 41 49 fe 6f a7 d4 b1 5c 76 2c
       63 67 -96 -85 -106 -11 65 73 -2 111 -89 -44 -79 92 118 44
0000e0 b9 f2 6f 42 bb ed a3 cf 25 4d a3 69 42 a9 10 64
       -71 -14 111 66 -69 -19 -93 -49 37 77 -93 105 66 -87 16 100
0000f0 b8 91 8f da 31 ef 4c 01 d3 df 60 1b 05 53 68 d0
       -72 -111 -113 -38 49 -17 76 1 -45 -33 96 27 5 83 104 -48

tfl.pseudo_qconst19 i1 [1, 1, 24] scale=0.0025726391 zero_point=-61
000000 a0 c4 27 c7 93 d0 8e c2 c5 aa b5 bd c4 7f c4 80
       -0.09004237 0.0025726391 0.25726393 0.010290557 -0.12348668 0.033444308 -0.13634987 -0.0025726391 0.0051452783 -0.06431598 -0.03601695 -0.015435835 0.0025726391 0.48365617 0.0025726391 -0.17236683
000010 bf 94 ca c7 ad b8 c0 d8
       -0.010290557 -0.12091404 0.018008474 0.010290557 -0.05659806 -0.02829903 -0.0077179177 0.054025423

tfl.pseudo_qconst21 i1 [24, 1, 15, 16]
000000 0e 24 e0 f3 13 10 fd e8 f4 e7 0a e5 fb 26 e7 15
       14 36 -32 -13 19 16 -3 -24 -12 -25 10 -27 -5 38 -25 21
000010 db 0e 04 fd f3 e8 21 ef fa db 0c e4 10 df e4 0f
       -37 14 4 -3 -13 -24 33 -17 -6 -37 12 -28 16 -33 -28 15
000020 27 05 18 27 07 da 0a fd 22 0b 0c df 05 08 f7 e7
       39 5 24 39 7 -38 10 -3 34 11 12 -33 5 8 -9 -25
000030 da e1 0c f8 06 0c 11 12 12 01 05 e9 10 ed d5 de
       -38 -31 12 -8 6 12 17 18 18 1 5 -23 16 -19 -43 -34
000040 23 da df 21 27 db 27 da ec e7 23 00 f5 e9 f4 d9
       35 -38 -33 33 39 -37 39 -38 -20 -25 35 0 -11 -23 -12 -39
000050 27 08 2d 30 1f 34 0d 08 fa 03 fa 36 fd dc 27 ee
       39 8 45 48 31 52 13 8 -6 3 -6 54 -3 -36 39 -18
000060 e5 26 06 fd 24 01 24 d8 3a f9 e4 26 d4 c4 e5 0f
       -27 38 6 -3 36 1 36 -40 58 -7 -28 38 -44 -60 -27 15
000070 e8 e7 29 d9 15 fb e2 f2 0b 1b 14 0a de 06 f7 fd
       -24 -25 41 -39 21 -5 -30 -14 11 27 20 10 -34 6 -9 -3
000080 04 f1 06 0a 2e 1d 1b 37 24 d8 e8 01 05 c2 f3 0e
       4 -15 6 10 46 29 27 55 36 -40 -24 1 5 -62 -13 14
000090 11 db ef 0f 06 2d fa 11 fc 06 f6 19 ee fe e3 ea
       17 -37 -17 15 6 45 -6 17 -4 6 -10 25 -18 -2 -29 -22
0000a0 23 e0 dd 34 48 1c 18 1a db df 26 7f 07 32 31 28
       35 -32 -35 52 72 28 24 26 -37 -33 38 127 7 50 49 40
0000b0 0a f9 fc ea 23 26 2a d5 e1 fa e7 48 e0 df 11 ef
       10 -7 -4 -22 35 38 42 -43 -31 -6 -25 72 -32 -33 17 -17
0000c0 00 fc 05 16 ef fa 2f 24 24 04 1f ff ea f2 26 f4
       0 -4 5 22 -17 -6 47 36 36 4 31 -1 -22 -14 38 -12
0000d0 0e ed 15 13 ef ea da d8 ec 07 f7 24 f0 f9 0c 09
       14 -19 21 19 -17 -22 -38 -40 -20 7 -9 36 -16 -7 12 9
0000e0 09 fe 05 fa f8 f5 06 0d 1c 0d e2 06 0e e6 dc 0b
       9 -2 5 -6 -8 -11 6 13 28 13 -30 6 14 -26 -36 11
0000f0 f9 ff 0c f7 ff 11 09 ea fa f7 f1 16 13 0b ec 10
       -7 -1 12 -9 -1 17 9 -22 -6 -9 -15 22 19 11 -20 16

tfl.pseudo_qconst22 i1 [1, 1, 16] scale=0.0010212071 zero_point=-31
000000 e1 70 c8 e0 c5 e5 2a bb e2 aa cc e5 b6 7f c5 80
       0.0 0.14603262 -0.025530176 -0.0010212071 -0.028593797 0.0040848283 0.07454812 -0.03880587 0.0010212071 -0.056166388 -0.021445349 0.0040848283 -0.043911904 0.16135071 -0.028593797 -0.099057086

tfl.pseudo_qconst23 i1 [16, 1, 15, 16]
000000 ed 05 fc e6 e3 19 f0 1b 32 cf ed c7 1a 57 0c cf
       -19 5 -4 -26 -29 25 -16 27 50 -49 -19 -57 26 87 12 -49
000010 ff ef 15 31 db f0 15 fc ff f3 ec c3 2f cb c2 1d
       -1 -17 21 49 -37 -16 21 -4 -1 -13 -20 -61 47 -53 -62 29
000020 4e d7 f6 d8 14 e4 ee b0 e1 1d 1e 1d 35 d0 ce cd
       78 -41 -10 -40 20 -28 -18 -80 -31 29 30 29 53 -48 -50 -51
000030 28 ed 1e cd fd a7 08 05 1f 41 cf fc 11 16 ff 6d
       40 -19 30 -51 -3 -89 8 5 31 65 -49 -4 17 22 -1 109
000040 14 13 e8 0a fe d8 21 d8 01 41 0d 61 06 11 e0 60
       20 19 -24 10 -2 -40 33 -40 1 65 13 97 6 17 -32 96
000050 58 63 14 1d 19 26 35 16 f1 71 06 01 fb cd d6 11
       88 99 20 29 25 38 53 22 -15 113 6 1 -5 -51 -42 17
000060 00 1f 1e de 5f 03 58 bb c2 4f ed fc ec 14 db 56
       0 31 30 -34 95 3 88 -69 -62 79 -19 -4 -20 20 -37 86
000070 47 17 23 b4 43 f2 6c bd f7 7f 28 2e 27 30 f1 d1
       71 23 35 -76 67 -14 108 -67 -9 127 40 46 39 48 -15 -47
000080 cb e4 dd d8 ca e0 55 08 3b f1 d4 0a ec e5 1b f9
       -53 -28 -35 -40 -54 -32 85 8 59 -15 -44 10 -20 -27 27 -7
000090 f4 d0 28 cb e8 e4 10 ee e1 ec d6 2e 05 dc f8 00
       -12 -48 40 -53 -24 -28 16 -18 -31 -20 -42 46 5 -36 -8 0
0000a0 f2 3c 22 d6 e6 bc 0b fe 05 c1 0f 29 d5 c7 15 eb
       -14 60 34 -42 -26 -68 11 -2 5 -63 15 41 -43 -57 21 -21
0000b0 00 32 e6 db 0b c1 03 16 dc 20 fa 2d 3b ee f0 c7
       0 50 -26 -37 11 -63 3 22 -36 32 -6 45 59 -18 -16 -57
0000c0 d2 e3 e0 ac 37 27 c3 4e 0e fe c9 c6 f6 e9 dd d6
       -46 -29 -32 -84 55 39 -61 78 14 -2 -55 -58 -10 -23 -35 -42
0000d0 39 c5 ed f3 e7 e6 15 4c 19 27 b2 f8 df e5 00 1b
       57 -59 -19 -13 -25 -26 21 76 25 39 -78 -8 -33 -27 0 27
0000e0 12 da f3 61 fc 2d cc eb 4e dc d8 ff e5 e5 1e e7
       18 -38 -13 97 -4 45 -52 -21 78 -36 -40 -1 -27 -27 30 -25
0000f0 03 f8 0e 03 cf e7 03 17 31 ef 08 1b 04 3a c7 07
       3 -8 14 3 -49 -25 3 23 49 -17 8 27 4 58 -57 7

tfl.pseudo_qconst24 i1 [1, 1, 16] scale=0.0008247393 zero_point=-37
000000 da d7 b4 de da 80 d2 7f 1d d2 0d 86 e3 15 e3 db
       -0.0008247393 -0.0032989571 -0.03216483 0.002474218 -0.0008247393 -0.07505128 -0.0074226535 0.13525724 0.054432794 -0.0074226535 0.041236963 -0.07010284 0.0065979143 0.047834877 0.0065979143 0.0

tfl.pseudo_qconst27 i1 [16, 1, 9, 10]
000000 02 1c 02 bf d2 da ef 1f c3 f6 da 15 09 e8 ce e1
       2 28 2 -65 -46 -38 -17 31 -61 -10 -38 21 9 -24 -50 -31
000010 17 0c c3 de 0a 11 ec d4 f8 c0 2c 13 bc 0f 0f d7
       23 12 -61 -34 10 17 -20 -44 -8 -64 44 19 -68 15 15 -41
000020 c3 d7 f0 be d2 e9 bd db 1c 25 f9 d4 e1 ac dd cf
       -61 -41 -16 -66 -46 -23 -67 -37 28 37 -7 -44 -31 -84 -35 -49
000030 a8 ae 12 f4 04 09 dd ef fd cf 81 ec 1a e4 04 e8
       -88 -82 18 -12 4 9 -35 -17 -3 -49 -127 -20 26 -28 4 -24
000040 e5 e4 24 0d af c6 f4 e2 00 fb 20 1b f9 f1 c8 f6
       -27 -28 36 13 -81 -58 -12 -30 0 -5 32 27 -7 -15 -56 -10
000050 ec 25 ff 03 f7 ca f2 1c d8 d2 1d d2 f4 e5 2e da
       -20 37 -1 3 -9 -54 -14 28 -40 -46 29 -46 -12 -27 46 -38
000060 ce f7 05 fd da f1 00 be 09 1d da cf dd 18 d7 f6
       -50 -9 5 -3 -38 -15 0 -66 9 29 -38 -49 -35 24 -41 -10
000070 f2 2b f9 f3 02 d3 be f6 03 35 e4 f3 10 fe d6 e7
       -14 43 -7 -13 2 -45 -66 -10 3 53 -28 -13 16 -2 -42 -25
000080 e8 26 d1 08 c6 e6 fe 00 ee f5 fc 11 05 12 d0 05
       -24 38 -47 8 -58 -26 -2 0 -18 -11 -4 17 5 18 -48 5
000090 db e1 db 21 db bf 20 cb ee ae e1 07 23 22 c4 eb
       -37 -31 -37 33 -37 -65 32 -53 -18 -82 -31 7 35 34 -60 -21
0000a0 ee 14 cf f7 18 0f f8 e6 b7 de 22 2d d7 9c bc d8
       -18 20 -49 -9 24 15 -8 -26 -73 -34 34 45 -41 -100 -68 -40
0000b0 e5 05 81 f0 fc ad d7 0f f8 e0 e1 cd 17 1a ff f5
       -27 5 -127 -16 -4 -83 -41 15 -8 -32 -31 -51 23 26 -1 -11
0000c0 c0 bb be bd bd d1 01 be c0 2d 2e 04 ce ad ee ea
       -64 -69 -66 -67 -67 -47 1 -66 -64 45 46 4 -50 -83 -18 -22
0000d0 e1 ee 17 4b ff bc 03 d6 0d eb ed f0 09 ea bf bb
       -31 -18 23 75 -1 -68 3 -42 13 -21 -19 -16 9 -22 -65 -69
0000e0 45 52 18 f4 1c ef eb d2 1d 22 2a f8 d6 ef e7 47
       69 82 24 -12 28 -17 -21 -46 29 34 42 -8 -42 -17 -25 71
0000f0 33 42 08 08 40 be 2a cf e2 39 29 2d 17 30 d4 8e
       51 66 8 8 64 -66 42 -49 -30 57 41 45 23 48 -44 -114

tfl.pseudo_qconst28 i1 [1, 1, 10] scale=0.0017721921 zero_point=-89
000000 a7 35 ff 80 04 d6 c0 1e 7f f0
       0.0 0.2516513 0.1559529 -0.06911549 0.16481386 0.08329303 0.044304803 0.21089086 0.3827935 0.12937002

tfl.pseudo_qconst30 i1 [10, 1, 9, 1]
000000 c5 f5 de 9c d1 b9 cc 00 81 98 cf cd b3 8a 9b 71
       -59 -11 -34 -100 -47 -71 -52 0 -127 -104 -49 -51 -77 -118 -101 113
000010 a9 81 f9 de 81 28 00 91 08 af 28 c9 7f f2 b0 86
       -87 -127 -7 -34 -127 40 0 -111 8 -81 40 -55 127 -14 -80 -122
000020 4a ec 75 2e ba 32 81 42 f1 8d bf 8c d2 14 81 0d
       74 -20 117 46 -70 50 -127 66 -15 -115 -65 -116 -46 20 -127 13
000030 53 00 10 0d ea cb dd c6 1b 27 24 81 22 e1 e2 18
       83 0 16 13 -22 -53 -35 -58 27 39 36 -127 34 -31 -30 24
000040 01 2a bf be 42 1c d3 81 10 d6 0d 9f 17 14 15 9f
       1 42 -65 -66 66 28 -45 -127 16 -42 13 -97 23 20 21 -97
000050 81 3d ff f4 cf d1 03 fc 0a 81
       -127 61 -1 -12 -49 -47 3 -4 10 -127
