system_ext/etc/modem/signal.tflite (tflite, 28256 bytes, 26 tensors)

MatMul f4 [2, 32]
00000000: 8826 313e 8bd2 193e ce04 013e d5e0 49be
00000010: 5d35 603f 1332 c83e 0613 60bc fb1d c53d
00000020: e2aa 7d3d ed52 afbd 5617 a53e b8b9 933d
00000030: ca27 bdbf da8c d1bd 4b84 f63e bf00 423e
00000040: 2c31 e53d df7c c73d 28fa 7ebd f825 d4bd
00000050: 788e 8e3d 53bb f2bc 45b2 833e 204a d538
00000060: 91bf 94bd 512b 40bf a814 f4bd fe4b 293e
00000070: eac8 493f e7a6 72bd ac8b f73d 3775 9ebd
00000080: b479 e6bd d768 6cbb b9ee 2fbe 3f7e c43e
00000090: 643a 38bf ce86 d0be 223a 423d 2bbe 3cbe
000000a0: da16 773c 1e74 a33d 9ef6 1abe 21f4 bdbd
000000b0: 1b4b cd3f 2891 c43d 41df 1fbf 5c76 96be
000000c0: a25f 9f3c 3dde 3abe 85f8 4f3e 161a 93bb
000000d0: acaf 90be 5914 e43d dee8 30be d2e4 a9bd
000000e0: 0aa8 193d 755f 693f c195 f6bd 20d4 1fbc
000000f0: 70b1 87bf a22b b3bc c5fd 2dbe c530 8c3c
0.17299855 0.15021722 0.12599489 -0.19714673 0.87581426 0.39100704 -0.013676411 0.09624859
0.061930545 -0.08560739 0.32244366 0.072131574 -1.4777768 -0.102319434 0.48147807 0.18945597
0.111910194 0.09740614 -0.062250286 -0.103588045 0.069607675 -0.029630339 0.25721946 0.00010170438
-0.07263101 -0.75066096 -0.11918002 0.16532895 0.78822196 -0.0592412 0.12087187 -0.07737201
-0.11253682 -0.0036073232 -0.17180909 0.38377568 -0.719641 -0.40727848 0.04741872 -0.18431918
0.015081132 0.07981132 -0.1513314 -0.092750795 1.6038545 0.09597999 -0.62450033 -0.29387176
0.019454781 -0.1824884 0.20309646 -0.0044891937 -0.28259027 0.111366935 -0.17276332 -0.08295597
0.03751377 0.9116128 -0.12040282 -0.009755164 -1.0601025 -0.021871392 -0.16991337 0.017113099

onnx_tf_prefix_/Add f4 [1, 400, 1]
00000000: e8d8 573e 983a 3bbc 97e6 fdbd cc6a f8bd
00000010: d47c 913e a535 e53e ee20 e3be c7d5 8c3e
00000020: f395 83be 9dc4 de3d b89c 8b3b 7c27 b83e
00000030: 720d c0be 413d a93e 66a0 2dbd 6266 9c3e
00000040: b652 b2be 17f5 153e 991b a3bd c05e ab3e
00000050: 8f7e a2be a54d 3a3e e1ba d2bd 0e62 a83e
00000060: 1f03 82be 05b4 113e 3053 6fbd f957 963e
00000070: 3f52 66be b3ca fa3d c470 5b3d c4e0 773c
00000080: 38e5 0a3e a225 bdbc ed2b 303d 88d4 503c
00000090: 0d9d c6bd bf8d 653e 8570 97bd af61 5d3e
000000a0: da36 a9be f217 d63e 378a 9cbe 3e40 1c3e
000000b0: ce84 88bc 7c6b 6f3e 4ac2 b7be 455c 653e
000000c0: f463 903c 0763 a03e 8e72 96be ab95 843e
000000d0: 9d63 a9be 2e33 8a3e 3b82 e83d 2f1d 7a3d
000000e0: aee8 96be fa1d 533e 9040 db3d f869 9f3d
000000f0: 1fd9 aebe 8966 ae3e ab95 1abe 0899 e33d
00000100: 53d6 653d a25b a43e 6c61 b9be 31cf 343e
00000110: 30c7 4f3d a46f 4c3d c0b4 00be d353 b83c
00000120: ed9e 003e 4fed a3be 22b3 8d3e f1e6 043e
00000130: e386 fdbd 12a1 ec3d 980a e2bd 7be1 4e3e
00000140: 3cb1 52be fdaa 103e 5eb1 1bbc d084 b23e
00000150: 5224 83be bd13 e53d ba98 7cbd e33f b23e
00000160: 422e 1fbe d3af 88bd 96a3 9f3d 1085 973e
00000170: 6cc7 35be 0227 453e e7c6 e63e 5a91 a83e
00000180: b6f4 9f3e 2989 623e 387f 8dbe 6154 7d3e
00000190: e8d8 573e 983a 3bbc 97e6 fdbd cc6a f8bd
000001a0: d47c 913e a535 e53e ee20 e3be c7d5 8c3e
000001b0: f395 83be 9dc4 de3d b89c 8b3b 7c27 b83e
000001c0: 720d c0be 413d a93e 66a0 2dbd 6266 9c3e
000001d0: b652 b2be 17f5 153e 991b a3bd c05e ab3e
000001e0: 8f7e a2be a54d 3a3e e1ba d2bd 0e62 a83e
000001f0: 1f03 82be 05b4 113e 3053 6fbd f957 963e
00000200: 3f52 66be b3ca fa3d c470 5b3d c4e0 773c
00000210: 38e5 0a3e a225 bdbc ed2b 303d 88d4 503c
00000220: 0d9d c6bd bf8d 653e 8570 97bd af61 5d3e
00000230: da36 a9be f217 d63e 378a 9cbe 3e40 1c3e
00000240: ce84 88bc 7c6b 6f3e 4ac2 b7be 455c 653e
00000250: f463 903c 0763 a03e 8e72 96be ab95 843e
00000260: 9d63 a9be 2e33 8a3e 3b82 e83d 2f1d 7a3d
00000270: aee8 96be fa1d 533e 9040 db3d f869 9f3d
00000280: 1fd9 aebe 8966 ae3e ab95 1abe 0899 e33d
00000290: 53d6 653d a25b a43e 6c61 b9be 31cf 343e
000002a0: 30c7 4f3d a46f 4c3d c0b4 00be d353 b83c
000002b0: ed9e 003e 4fed a3be 22b3 8d3e f1e6 043e
000002c0: e386 fdbd 12a1 ec3d 980a e2bd 7be1 4e3e
000002d0: 3cb1 52be fdaa 103e 5eb1 1bbc d084 b23e
000002e0: 5224 83be bd13 e53d ba98 7cbd e33f b23e
000002f0: 422e 1fbe d3af 88bd 96a3 9f3d 1085 973e
00000300: 6cc7 35be 0227 453e e7c6 e63e 5a91 a83e
00000310: b6f4 9f3e 2989 623e 387f 8dbe 6154 7d3e
00000320: e8d8 573e 983a 3bbc 97e6 fdbd cc6a f8bd
00000330: d47c 913e a535 e53e ee20 e3be c7d5 8c3e
00000340: f395 83be 9dc4 de3d b89c 8b3b 7c27 b83e
00000350: 720d c0be 413d a93e 66a0 2dbd 6266 9c3e
00000360: b652 b2be 17f5 153e 991b a3bd c05e ab3e
00000370: 8f7e a2be a54d 3a3e e1ba d2bd 0e62 a83e
00000380: 1f03 82be 05b4 113e 3053 6fbd f957 963e
00000390: 3f52 66be b3ca fa3d c470 5b3d c4e0 773c
000003a0: 38e5 0a3e a225 bdbc ed2b 303d 88d4 503c
000003b0: 0d9d c6bd bf8d 653e 8570 97bd af61 5d3e
000003c0: da36 a9be f217 d63e 378a 9cbe 3e40 1c3e
000003d0: ce84 88bc 7c6b 6f3e 4ac2 b7be 455c 653e
000003e0: f463 903c 0763 a03e 8e72 96be ab95 843e
000003f0: 9d63 a9be 2e33 8a3e 3b82 e83d 2f1d 7a3d
0.21078837 -0.011427544 -0.12397497 -0.12129745 0.2841555 0.4476749 -0.4436106 0.2750685
-0.2570034 0.10877345 0.0042606257 0.35967624 -0.37510258 0.33054546 -0.042389296 0.30546862
-0.34828728 0.14644276 -0.07964248 0.33470726 -0.31737182 0.18193682 -0.102895506 0.3288731
-0.25393006 0.14228828 -0.058428943 0.29363993 -0.22492312 0.12245693 0.05357434 0.015129272
0.13564003 -0.023089234 0.04301064 0.012745984 -0.09697924 0.22417353 -0.07394508 0.21619295
-0.3304966 0.41815144 -0.305742 0.15258881 -0.016664889 0.23380846 -0.35890418 0.2239848
0.017625786 0.31325552 -0.29384273 0.25895438 -0.3308381 0.26992172 0.113529645 0.061062988
-0.29474396 0.20616904 0.10705674 0.07783884 -0.34150025 0.34062603 -0.15096156 0.11113173
0.0561126 0.3210116 -0.3620714 0.17657162 0.05072707 0.049911156 -0.1256895 0.022500908
0.12560625 -0.3201699 0.2767573 0.12978722 -0.12379243 0.11554159 -0.11037177 0.20203201
-0.20575422 0.14127727 -0.009502737 0.34866953 -0.25613648 0.111854054 -0.06166909 0.34814367
-0.1554499 -0.06674161 0.077948734 0.29593706 -0.17751855 0.19253162 0.45073625 0.32923394
0.31241387 0.22122635 -0.27636123 0.24739219 0.21078837 -0.011427544 -0.12397497 -0.12129745
0.2841555 0.4476749 -0.4436106 0.2750685 -0.2570034 0.10877345 0.0042606257 0.35967624
-0.37510258 0.33054546 -0.042389296 0.30546862 -0.34828728 0.14644276 -0.07964248 0.33470726
-0.31737182 0.18193682 -0.102895506 0.3288731 -0.25393006 0.14228828 -0.058428943 0.29363993
-0.22492312 0.12245693 0.05357434 0.015129272 0.13564003 -0.023089234 0.04301064 0.012745984
-0.09697924 0.22417353 -0.07394508 0.21619295 -0.3304966 0.41815144 -0.305742 0.15258881
-0.016664889 0.23380846 -0.35890418 0.2239848 0.017625786 0.31325552 -0.29384273 0.25895438
-0.3308381 0.26992172 0.113529645 0.061062988 -0.29474396 0.20616904 0.10705674 0.07783884
-0.34150025 0.34062603 -0.15096156 0.11113173 0.0561126 0.3210116 -0.3620714 0.17657162
0.05072707 0.049911156 -0.1256895 0.022500908 0.12560625 -0.3201699 0.2767573 0.12978722
-0.12379243 0.11554159 -0.11037177 0.20203201 -0.20575422 0.14127727 -0.009502737 0.34866953
-0.25613648 0.111854054 -0.06166909 0.34814367 -0.1554499 -0.06674161 0.077948734 0.29593706
-0.17751855 0.19253162 0.45073625 0.32923394 0.31241387 0.22122635 -0.27636123 0.24739219
0.21078837 -0.011427544 -0.12397497 -0.12129745 0.2841555 0.4476749 -0.4436106 0.2750685
-0.2570034 0.10877345 0.0042606257 0.35967624 -0.37510258 0.33054546 -0.042389296 0.30546862
-0.34828728 0.14644276 -0.07964248 0.33470726 -0.31737182 0.18193682 -0.102895506 0.3288731
-0.25393006 0.14228828 -0.058428943 0.29363993 -0.22492312 0.12245693 0.05357434 0.015129272
0.13564003 -0.023089234 0.04301064 0.012745984 -0.09697924 0.22417353 -0.07394508 0.21619295
-0.3304966 0.41815144 -0.305742 0.15258881 -0.016664889 0.23380846 -0.35890418 0.2239848
0.017625786 0.31325552 -0.29384273 0.25895438 -0.3308381 0.26992172 0.113529645 0.061062988

Const_8 f4 [16]
00000000: 2fa1 a7bc be60 05be dcb3 983e 6803 39be
00000010: 8f45 103e 1464 c63d 4b65 0f3e a184 3c3d
00000020: 4b18 983e 9cde cfbe 1fe3 91be ac2c c93e
00000030: 9e4a 94be e345 be3e 105a d7be f1b3 c63e
-0.0204626 -0.13025185 0.29824722 -0.18067706 0.14089034 0.09687057 0.14003484 0.046024922
0.29706034 -0.40599525 -0.28493592 0.39291894 -0.28963178 0.37162694 -0.420609 0.3880916

Const_4 f4 [32]
00000000: 36f8 543d 41e4 ee3e d9be 9b3e ce97 2dbe
00000010: 1f57 723e 6614 88be eb52 88be fa92 77be
00000020: 8256 883e 5909 a1be a196 68bc 9faf a83e
00000030: 5374 c4be 5cb5 85be f363 843e 74b3 9dbe
00000040: 6518 e7be 8d7b 89be 3226 8ebe d371 a83e
00000050: d95b 52be cfc8 10be da27 9f3d 878e c53e
00000060: a6cd 88be 858f c3be ea86 dd3e 3e96 84be
00000070: 843a 5f3e 90d9 b0be 4847 8fbe 467c d23e
0.051994525 0.4665852 0.30419043 -0.1695244 0.23666047 -0.26578063 -0.2662576 -0.24177161
0.266285 -0.31452444 -0.014196069 0.32946488 -0.38369998 -0.2611493 0.25857505 -0.30800974
-0.451358 -0.26852074 -0.27763516 0.3289934 -0.2054285 -0.14139102 0.07771273 0.38585302
-0.26719397 -0.38195434 0.43266994 -0.25895876 0.21799666 -0.34540987 -0.2798407 0.41110438

Const f4 [2]
00000000: 9cca 1c3c 10e6 073c
0.00956979 0.008294597

Const_12 f4 [4]
00000000: 7476 71be c636 25be 62e5 0ebf 4b9c 503f
-0.23580343 -0.16134176 -0.5581876 0.81488484

Const_10 f4 [16]
00000000: df0b 863e 333d 593e b65a 953e 7c29 d5be
00000010: fb46 b8bd 550d bcbe 4023 573e adc8 17be
00000020: c303 e5be f504 f4be 9ecc c93e 9036 0abf
00000030: 36b8 97be 3bc0 8fbe 2f8c c33e c553 923e
0.26180932 0.21214752 0.2917077 -0.41633213 -0.089979135 -0.36728922 0.2100954 -0.14822645
-0.44729432 -0.47660032 0.39413923 -0.53989506 -0.2963273 -0.28076348 0.3819289 0.28579536

Const_6 f4 [32]
00000000: 162a 6d3e 9d25 783e c1db 5e3e b281 c1be
00000010: c328 cc3e f0eb dabe 431d e83e 45a0 e9be
00000020: 623d 65be a9ff dcbe 93df bf3e 190a e23e
00000030: e1a6 08bd 5d12 a63e b60d 6e3e 6cc0 f93d
00000040: a56c 21be cffc 4cbe 5df3 77be 4f5a 9ebe
00000050: d72f d33e c131 4c3e 84f7 1a3e 7f54 3abe
00000060: 821a 8abe c0f7 ec3e 94b9 43be 8fe7 7dbe
00000070: e90d 90be a649 dbbe 5ef0 ddbd 8aac 5e3e
0.23160586 0.24233098 0.21763517 -0.37794262 0.3987485 -0.4275813 0.45334825 -0.45630088
-0.22386697 -0.43163803 0.3747526 0.4414833 -0.033362273 0.32435885 0.23247418 0.12194905
-0.15764101 -0.20018314 -0.2421393 -0.30928275 0.41247436 0.19940855 0.15133482 -0.18196295
-0.2697335 0.46282768 -0.19113761 -0.24795364 -0.28135613 -0.42829627 -0.10836862 0.21745506

Const_2 f4 [32]
00000000: 3a0e 62be bec0 31bd 3d10 6dbe b5a8 88bd
00000010: 8011 86be c2fd bfbe 2e53 0dbc 9a7f 77be
00000020: 4e0f 1ebe 9880 0d3e 657b 8cbe eaea b9bd
00000030: 7fb2 87be 5d9a 91bd 4529 1fbe a42a 8abe
00000040: 8d5c 82bc f1ba 783c e02a 593d 74e2 543d
00000050: d6e0 02be 6b58 743d b8d7 a8bd 2709 783d
00000060: 1121 203e fea6 28bd bbdb 1fbd e359 5dbe
00000070: 14bb 36be c1b3 ba3c 3613 7fbe 6d02 653e
-0.2207574 -0.043396704 -0.23150726 -0.06672803 -0.26185226 -0.3749829 -0.008625789 -0.2416977
-0.15435526 0.13818586 -0.27437893 -0.090780094 -0.2650337 -0.071095206 -0.15543087 -0.26985657
-0.015913272 0.015181289 0.053019404 0.051973775 -0.1278108 0.059654634 -0.0824427 0.060555603
0.15637614 -0.04117488 -0.03902791 -0.2161632 -0.17844802 0.022790791 -0.24909672 0.22364207

convolution_9 f4 [4]
00000000: 0000 0000 0000 0000 0000 0000 0000 0000
0.0 0.0 0.0 0.0

convolution f4 [4, 1, 3, 1]
00000000: 72ae 543e 2156 1f3e dd80 cc3e 310d 90be
00000010: 4874 003f 57e8 4abe b4ea a6be 67c7 f6be
00000020: 588e 993e c525 a63e 6466 e3be 1f18 c23d
0.2076967 0.155602 0.39942065 -0.28135064 0.5017743 -0.19815193 -0.3260094 -0.48199007
0.29991412 0.3245069 -0.44414055 0.09477257

convolution_1 f4 [16, 1, 5, 4]
00000000: 3e40 c63d 0855 2c3e fca4 2cbd ad9c 653d
00000010: 8ada 00bd 352d 61be f982 0fbe d831 593e
00000020: 59ff 123d f373 05bf 155f 8e3d 2095 2fbd
00000030: 8d4a 2f3e f08c a6bd 4e52 8e3c 44ee 233e
00000040: 7f9e a53d 6b15 3e3e 81e6 34be 223a c9bc
00000050: 9e52 81bd 6966 da3d c9a4 123d 2c7f 64bc
00000060: 129f ca3d 9908 883e dd94 13be b058 a33e
00000070: 8f26 cb3d 0abe c9be 80f3 48be e6a5 5f3d
00000080: 873c 92bd 985d dfbe 348a 87be 9025 ea3d
00000090: 2e8b 933d d1c7 7bbe 0c5e 703d b671 72bd
000000a0: 4473 17bd bb33 56be 3583 debc ab49 14be
000000b0: b8e3 15be 4a68 253e 6839 ad3d acd2 7c3e
000000c0: 33ba 343e e6ba 81bd c6e6 633d 4d36 aabc
000000d0: 54ec 75bd 80a6 153e 8c87 213e ae0e 223e
000000e0: f390 0e3d 8e8c d1bd be0d 2abd 5622 ffbc
000000f0: 37b4 6b3c d0b8 edbd 83e6 ec3d 400a 88bb
00000100: 11a1 2c3e 184b a2bd 9a5e 213e 8602 2b3b
00000110: 097e 143e e8de 8d3d d507 52be 53ea a5bd
00000120: 30fb 82bd b077 33bd 0bf1 ac3d f7fb f93d
00000130: 387e 7dbe ae93 f2bd d803 bcbd 646c 803e
00000140: a931 f4bd c739 b73d c3be a03e 00fb 8fbc
00000150: 496c 563d da62 103d 6565 1dbe b1b7 19be
00000160: c2fc b4be 9627 e2be 0dfa 24be cb22 13bd
00000170: 6e20 38be 4512 4c3e 6a2b 2dbd fcdc 4cbe
00000180: 90de 11be 9d1c 62bd 59e0 03be 125e 5f3b
00000190: 6e48 96be c4ea 093e ed2b 20bc f434 9fbd
000001a0: 337d 30be f5ea 8a3c 04be 413e 9c31 5d3d
000001b0: 751b c63d c5b9 14be de94 9abd 6e13 debd
000001c0: 2fe8 55bc 1532 a13d 78e8 273c ba51 003e
000001d0: 3bbe b9be 8a19 6e3e 6475 2b3e 371d 16be
000001e0: 04a1 da3d c01e 25be 0a18 a93c 7e08 823d
000001f0: 6ef5 473e 8a7e 81bd 4bdd 1abc 3114 93be
00000200: c1ea 283e b345 56be 6261 543e 3daf 103e
00000210: 10b4 273e b998 80bd 6592 0abe 0243 283e
00000220: 7408 243e c138 f93d bf1d eb3d 29a7 42bd
00000230: e8c7 663b a6ae 953d 82c2 7d3e adad cb3c
00000240: 3ee5 55be 69bf 9e3e 7fb8 273e c599 433e
00000250: 93e4 1cbe 1063 153e 0117 0dbe 38ab 82be
00000260: e31a 81be ae1e 39bf e518 34be 97ec 153e
00000270: 4926 31be 3dff d9bc eab9 22be 5e96 663d
00000280: 030f 24be c282 8b3d e982 f73d 37f9 bfbd
00000290: b288 5e3c 36a7 eabc ce80 c53d 1287 bd3d
000002a0: 3a7b 25be 79b4 d6bd 2dfb 24bc 442d 25be
000002b0: d904 4fbe 3a5c 183e 2d37 fdbd 7525 00bd
000002c0: c267 7cbe 2a02 0b3e cc98 2b3e 725a 083e
000002d0: a474 aebb 2b27 dc3d 6bbc 433e 499f b43d
000002e0: 136b 7b3d 2a03 2cbe d167 01be 6c13 ab3d
000002f0: 563a 3c3e 6903 b93d 3247 133d 37b0 e13d
00000300: a01d 72bd 3108 0a3a 2992 433e 5f47 a3bd
00000310: 793a fb3c bc77 3e3e 3f8a b5bd cf09 70bd
00000320: c890 c63d 8040 04be 08bb 10be 7a21 be3d
00000330: ec43 14bd a739 f6be c814 7d3d 7c21 c6bd
00000340: 83b3 dfbd 01d3 d3be b1ed 333d 00cc 013e
00000350: aae8 6f3e 4977 8bbe d131 aabd 0ce8 cdbc
00000360: c685 0bbe 991f 623e 8422 5e3e 83f7 cebc
00000370: 180a cd3c feba f93c d991 283d 1f0f 54bd
00000380: 33ae e7bc f0c0 2dbe 2e5f 2d3e 470c 41be
00000390: af8f 2d3e d28d 86be 9f41 ee3d 253b 393d
000003a0: 52fa 483e 516d 21be c8f4 38be f86d 7fbe
000003b0: 4215 ab3d 8b28 c63d 9b8a f33d dc40 72be
000003c0: ed59 68be 2d89 e1bd e904 873c 7574 f3bd
000003d0: f7f2 afbe 8a58 64bf 8252 febc 4318 b5bc
000003e0: 069e 02be b925 133e eda5 e5bd 3b7d 913d
000003f0: 0ba0 443e 9e68 873e 5bb7 d63d a0e4 b13d
0.09680222 0.16829312 -0.04214953 0.05605762 -0.031458415 -0.21989901 -0.14014806 0.2121042
0.03588805 -0.5213005 0.06951729 -0.042866826 0.17118283 -0.081323504 0.01737323 0.1600886
0.08086871 0.18562858 -0.17666055 -0.024563853 -0.06314586 0.106640644 0.035801683 -0.013946336
0.098936215 0.2656906 -0.14412256 0.319036 0.09919464 -0.394028 -0.19624138 0.054601572
-0.07140451 -0.43626094 -0.26472628 0.11432946 0.07204281 -0.24587943 0.05868344 -0.059190474
-0.03697516 -0.20918171 -0.027162174 -0.14481227 -0.14637649 0.16153064 0.08458215 0.2468974
0.17649154 -0.06334476 0.055640005 -0.020777846 -0.060039833 0.14614296 0.15774363 0.15825912
0.034806203 -0.10231887 -0.04151701 -0.031144302 0.014386228 -0.11607516 0.11567404 -0.0041516125
0.16858317 -0.07924479 0.15758744 0.0026094033 0.14501204 0.069272816 -0.205108 -0.081013344
-0.063955665 -0.043815315 0.08444413 0.122062616 -0.2475518 -0.11844574 -0.09180421 0.25082695
-0.119235344 0.08946567 0.3139554 -0.01757574 0.052349363 0.035250522 -0.1537071 -0.15011479
-0.3534909 -0.44170827 -0.16111012 -0.035921853 -0.17981121 0.19928844 -0.04227773 -0.20006174
-0.14245057 -0.05520307 -0.1287855 0.003408317 -0.29352134 0.13468462 -0.009776098 -0.07773772
-0.1723526 0.01695774 0.18920141 0.05400239 0.09673206 -0.1452399 -0.075479254 -0.1084355
-0.013055845 0.078708805 0.010248296 0.12531176 -0.36277947 0.2325193 0.16744 -0.14659582
0.106752425 -0.16125011 0.020641346 0.06349276 0.19527218 -0.063229635 -0.009452174 -0.28726342
0.16495802 -0.20925026 0.20740274 0.14129348 0.16377282 -0.062791295 -0.13532408 0.16431811
0.1601885 0.12169028 0.11480283 -0.047522698 0.0035214368 0.07308702 0.2478123 0.024863089
-0.2088823 0.3100541 0.16378973 0.19101627 -0.15321569 0.1458857 -0.13778307 -0.25521255
-0.25215825 -0.7231244 -0.17587622 0.14641033 -0.17299761 -0.026610965 -0.15891233 0.056295745
-0.16021352 0.068120494 0.12085516 -0.09373706 0.013582395 -0.028644186 0.09643708 0.09254278
-0.16160288 -0.10483641 -0.010069651 -0.16130549 -0.20216693 0.14878932 -0.123640396 -0.03128572
-0.24648955 0.13575044 0.16757506 0.13315752 -0.0053239632 0.10749658 0.19114845 0.08819444
0.06138141 -0.16798082 -0.12637259 0.08353314 0.18381628 0.090338536 0.03595657 0.110199384
-0.059110284 0.0005265503 0.19098724 -0.07972597 0.03066753 0.18600363 -0.08864259 -0.058603104
0.096955836 -0.1291523 -0.14133847 0.09283729 -0.036197588 -0.4809086 0.061787397 -0.096743554
-0.10922911 -0.4137192 0.043927852 0.12675476 0.23428598 -0.27239445 -0.08310283 -0.025135063
-0.1362525 0.22082366 0.21692854 -0.025264507 0.025029227 0.030484673 0.041154716 -0.051772233
-0.028281307 -0.16968131 0.1693084 -0.1885234 0.16949342 -0.26280075 0.1163361 0.04522242
0.1962674 -0.15764357 -0.18062127 -0.24944293 0.08353664 0.09675702 0.11891671 -0.23657554
-0.22690554 -0.11012492 0.016481834 -0.11887447 -0.34365055 -0.891976 -0.031045202 -0.022106295
-0.12755594 0.14369859 -0.112132885 0.07103964 0.19201677 0.26447004 0.10484191 0.08686185

convolution_2 f4 [4, 1, 7, 4]
00000000: 1eb6 20be c061 95be 358e 353e fc9d a03c
00000010: b799 84be bb5c 91be 09f3 073e 89a2 203d
00000020: a6d1 3abe 7319 b2be 609d b93d 67c5 2a3e
00000030: 8aeb 82be 3178 1abe 10c3 0e3d afa3 333d
00000040: 53e1 f2bd f758 383e 0d72 1cbe 86d0 8bbd
00000050: 1677 0c3b 49d8 12be eea1 0fbe a0aa 06be
00000060: b336 13be dd26 bc3d 52f0 6c3d 1016 e93d
00000070: fcda e63c 33a7 97bd d2a0 093e 1ba4 503e
00000080: 4d3c 1bbe 674e 74bd 2574 04bd 3920 353d
00000090: d1e9 dbbd 6556 cabd 4158 03be 2915 213c
000000a0: 6d2a bd3d c6da 1f3e 0ab9 ddbc 5a5d 523e
000000b0: a675 34bd 2183 c23d d88a 43be e94b 20bd
000000c0: f4c0 c2bd 7770 093e 23ce 443c 2248 0ebe
000000d0: cdc7 0c3c 5ac5 193e e468 693d 4d45 3ebd
000000e0: 8314 54bd 363a d2bd d019 253e d73d aa3d
000000f0: b9bf cbbd 0619 60bd 1a4c 173c f756 1fbe
00000100: 539a ebbb 739f 12bd 73bc dbbd c50a 9cbd
00000110: 72a3 3cbe a584 c2bd b799 1cbe d6db cf3d
00000120: 3ca6 c13d 2712 163e 6e22 06be 8d07 333d
00000130: 80cc b03d da18 ca3c c6ad 893d 8b06 22be
00000140: d97b 5d3e 5339 513e 75a6 42bd b4ac 69bd
00000150: 0476 05be 3816 02be 7007 81bd 734e dabc
00000160: c694 9b3d 1a32 19be 1ec9 88bd cf98 c03b
00000170: cb04 54be 21d3 f53c 83c5 133e c41c eebd
00000180: 7f22 81bd 801b 6ebd 2e48 8cbd 3683 123d
00000190: c3b1 4b3d f768 2dbe 3f45 0bbe 5414 453e
000001a0: 64d4 53be 8d27 183c b927 d7bd 33c9 5d3c
000001b0: 16ce 5ebe 87fd 56be 96ef 0fbe a2b7 373e
-0.15694472 -0.2917614 0.17730029 0.019606583 -0.25898525 -0.2839106 0.13276304 0.039217506
-0.18244037 -0.3478504 0.0906322 0.16676866 -0.25570327 -0.15084912 0.034853995 0.043857273
-0.118593834 0.18002687 -0.15277882 -0.06826882 0.0021433285 -0.14340319 -0.14026615 -0.13151026
-0.14376335 0.091871 0.057846375 0.11381161 0.028180592 -0.074049376 0.13440254 0.20375101
-0.15159722 -0.059645083 -0.032337327 0.044220183 -0.10737956 -0.0987976 -0.12826635 0.009831705
0.09236608 0.15610799 -0.027065773 0.20543423 -0.04405751 0.09497667 -0.19095933 -0.039134894
-0.09509459 0.13421808 0.012012037 -0.13894704 0.008592558 0.1501669 0.056984797 -0.04645281
-0.051777374 -0.10265009 0.16123128 0.08312576 -0.099486776 -0.054711364 0.009234453 -0.15560518
-0.0071900277 -0.035796594 -0.10729303 -0.076192416 -0.18421724 -0.09497956 -0.15293013 0.10149352
0.09455535 0.14655362 -0.13099071 0.043708373 0.08632755 0.024670053 0.06722598 -0.15822808
0.21629275 0.20432024 -0.047522027 -0.05704947 -0.130333 -0.12703788 -0.06300247 -0.026648736
0.07596736 -0.14960518 -0.06678985 0.005877591 -0.20704953 0.0300079 0.14430813 -0.1162658
-0.06305408 -0.058131695 -0.06849705 0.035769664 0.049730074 -0.16934572 -0.13600634 0.19246036
-0.2068649 0.009286773 -0.10505623 0.013536739 -0.21758303 -0.2099515 -0.14056239 0.17941144

convolution_3 f4 [4, 1, 7, 4]
00000000: 0792 c8bd 3652 91bd 689d e13d e7ca 35be
00000010: 1c1e 02bd dda1 1dbe 00fa 0cbe 1d47 b6bd
00000020: b950 86bd 09d5 e8bd 5fb5 1e3e cb48 723d
00000030: 045a 68be 5e40 553d f4c7 1c3e 773a 05bd
00000040: 819a d13d 2327 11be 50b1 25be 84b9 9abd
00000050: 04b0 a8be 48d7 2d3e 7bd8 f7bc cc9b cabd
00000060: f82d a4be a1a7 f3bc 9f36 943b a95a 87be
00000070: 74c9 a0be cd32 d6bd 3275 273e 85e8 92be
00000080: 4cb5 2ebe c7d9 8b3c 4765 333e db78 2cbc
00000090: 2bef 72be 4699 11bd 8723 013e 2f50 5dbe
000000a0: c97e 60be 951f 113d a8dc 5e3d 2c86 82bd
000000b0: 1955 593d ec08 c63d 84a3 bd3d b805 f13c
000000c0: b975 06be 74ec 053e 764d 6b3d 5909 6fbe
000000d0: 8f30 72be 6281 f8bd d3f3 7a3e fc76 05be
000000e0: c045 6abe 5eba 07be f96c 2d3e 5d99 86be
000000f0: 822e b1bd c11e 19be b7e9 523d dd1d a43d
00000100: 40da 1abe 7b7d 043e 8417 ad3d 8aeb 69bd
00000110: 96f3 83be 6c7f 6ebd b978 23be edf4 8dbc
00000120: c55d b03e 23bf a7bd ff69 b3bd 7ff6 2b3e
00000130: 0459 9f3c 7165 a7bd 8563 e6bc 21d4 043e
00000140: ff9f 4e3e bdf3 b8bd 006a 063e c268 363e
00000150: 5645 6fbe 4f6d 8cbd 3e90 11be a46b 92be
00000160: 4550 5fbe b247 f7bb 693f 0a3d d7be 82be
00000170: 389a 8fbe b388 01be 05a0 063e d756 b1bd
00000180: 0140 b2bb df0c 973d fa9b 0ebd 2b7c 4bbe
00000190: d6c7 823e f809 3f3e 5234 e03c 9a46 c43e
000001a0: 631a fd3d 0431 f33d bbed 71bd abd3 4c3e
000001b0: b847 6f3e 411a d43d c445 0fbe 43ff 1a3d
-0.097934775 -0.070957586 0.11016351 -0.17753182 -0.031766996 -0.15393777 -0.13767242 -0.089002825
-0.065583654 -0.11368758 0.15498875 0.059151452 -0.22690588 0.05206334 0.15310651 -0.03252646
0.102345474 -0.14175086 -0.1618092 -0.075549155 -0.3294679 0.16976655 -0.030254593 -0.09892997
-0.3206632 -0.029743018 0.004523113 -0.26436356 -0.31403697 -0.10458908 0.163533 -0.28693023
-0.17061347 0.017071618 0.17519103 -0.010526861 -0.23724048 -0.035546564 0.12611209 -0.21612619
-0.21923365 0.03543051 0.054409653 -0.063732475 0.05305967 0.096696705 0.09259704 0.029421672
-0.13130845 0.13078481 0.05744692 -0.2334341 -0.23651336 -0.12134053 0.24507074 -0.1303367
-0.2287817 -0.13254687 0.16936101 -0.26288882 -0.08651449 -0.14953138 0.05149242 0.080135085
-0.15122318 0.12938492 0.08451751 -0.057109393 -0.2577178 -0.058226988 -0.15964021 -0.017328704
0.3444654 -0.08190753 -0.087604515 0.1679325 0.019451626 -0.08173645 -0.028123626 0.12971546
0.20178221 -0.090308644 0.13126373 0.178134 -0.23366293 -0.068567865 -0.1421518 -0.28597748
-0.21807964 -0.0075463885 0.03375188 -0.25536224 -0.28047347 -0.12649803 0.1314698 -0.086591415
-0.0054397588 0.07375502 -0.03481672 -0.19871585 0.25543088 0.18656147 0.027368698 0.38335115
0.123585485 0.11874583 -0.059064608 0.2000262 0.23367202 0.1035657 -0.13991457 0.037841093

convolution_4 f4 [4, 1, 7, 4]
00000000: 6c0c dfba d110 043d 82f5 d9bd 2704 18be
00000010: e7f6 dbbd 5e61 82bd e388 1e3d 2d11 223d
00000020: 56f4 e23d b2bd 48bc fca9 1f3e 79d1 963d
00000030: 708a ebbd 44bf 10be d9e5 c6bc fc97 56be
00000040: c6cc 2fbe 715b 77bd 944c f63d 3f42 043d
00000050: 4f8f 7f3d a2a5 0c3e 8fc1 113c a85a 7abd
00000060: 0073 653e d557 13be cf74 43bd a1a0 643e
00000070: 2313 1d3e 2b1f c1bd c304 5abe 3fa7 d13d
00000080: 8c11 bd3d 1a34 b1bd 22df 72be ff5a 8c3d
00000090: 9fd8 5f3c 32c3 b93d e0a1 c6bc 7ffc a63d
000000a0: 3426 b9bd 2052 13bd 96d8 c6bd 6c03 0bbe
000000b0: 8661 253e 15eb 783d 8c9c 02be f5db 06be
000000c0: 1f51 2c3e 4488 423d 8826 8bbe 943b ccbc
000000d0: 62ef ae3b 68db a33d 5106 c5b9 0460 433e
000000e0: 1a39 1e3d 34b2 193e ad08 5d3e 3ad0 09be
000000f0: 9d3e 44bd 8d43 783d d13a fdbd 8f2f 9e3d
00000100: 99de e9bd 4540 a4bd ef4d 4ebe 127f c23d
00000110: 09c9 88bd c080 373e 00ee 6abd 715d bfbc
00000120: f97a 543d 59de e5bd 7fed 53be 0e5d c7bd
00000130: 729e 29bd 15e8 8d3b 78a7 bebc c983 e23d
00000140: 6db1 f7bd c112 a3bd 0a94 16be bef5 81be
00000150: de7d e63d 6aea 4a3e 852c 513e c0eb bcbd
00000160: 32f9 843c 5299 173e d245 483d 26bc 04be
00000170: 4d58 03be 6f62 c9bd 382a 483d 24a7 54be
00000180: 8fdc e83b 9f43 e7bd 5023 f13c c5a6 203c
00000190: 770e 2bbe 12a8 39be 8e63 4d3a eb32 36be
000001a0: b298 d2bd 6dbb a5bd 53f7 593e 3756 d13d
000001b0: e314 52bd e898 08bd 2f2b 113e 1815 113d
-0.0017017252 0.0322426 -0.1064253 -0.14845334 -0.10740452 -0.063662276 0.038704764 0.03956716
0.1108176 -0.012252258 0.15592188 0.073641725 -0.11501014 -0.14135462 -0.024279522 -0.20956415
-0.17167959 -0.06038994 0.12026325 0.03228974 0.06239253 0.13735059 0.008896246 -0.061121613
0.2240715 -0.14388974 -0.04771882 0.223269 0.15339331 -0.09429773 -0.21290879 0.10236978
0.092318624 -0.08652516 -0.23717931 0.06853294 0.013662486 0.09070434 -0.02424711 0.081536286
-0.0904049 -0.035966992 -0.09709279 -0.13575524 0.16150483 0.060771067 -0.1275503 -0.13169844
0.1682782 0.047493234 -0.27177835 -0.024930753 0.0053385952 0.08000833 -0.00037579474 0.19079596
0.038628675 0.15009385 0.21585341 -0.13458338 -0.047911275 0.060611296 -0.12364734 0.07723915
-0.1141941 -0.08020071 -0.20146917 0.09496893 -0.066789694 0.17920208 -0.05735588 -0.023359986
0.05187509 -0.1122405 -0.20696066 -0.09734546 -0.04141087 0.004330645 -0.023273215 0.11060292
-0.12094388 -0.079625614 -0.1470491 -0.253828 0.11254476 0.19815984 0.20427139 -0.09224653
0.016232107 0.14804581 0.04889471 -0.12962398 -0.12826653 -0.09833228 0.048868388 -0.20766884
0.0071063708 -0.112921946 0.029435784 0.009805386 -0.16704737 -0.1813052 0.0007834964 -0.17792861
-0.102830306 -0.08092389 0.21285753 0.10221522 -0.05128945 -0.033348948 0.1417663 0.035420507

convolution_5 f4 [4, 1, 7, 4]
00000000: 2c07 ee3d ca70 e83d bf17 cd3b f66d 023e
00000010: 232b 033e 6751 39bd 1954 80bd 8ebc 10bd
00000020: 42e4 e2bd 0345 6dba b33a 9bbd 4031 29be
00000030: 251c 1fbe 889f 243e 7343 b83d 11b9 00be
00000040: 6898 11be 686d 933b e347 2fbc da09 40bd
00000050: 3c65 32bc 9c71 b4bd b333 113d 56a6 bebc
00000060: fa47 12bd 052d 393e a68f c8bc 0a0d 73be
00000070: 5bb6 243d 3f65 c5bc 6b4f 393e e19c e43d
00000080: fba1 b2bd 9ce1 873c f489 473e 72f2 433e
00000090: 3ee5 623c b806 28be 6863 023e eb15 833d
000000a0: b938 72bd 9567 a1bd 4072 34be 43b6 65bd
000000b0: 4ace dabd 4d1b 7dbd 436f 983d a987 443e
000000c0: 4d24 e2bd 7867 8abd 33d8 e23d d851 c1bb
000000d0: 6308 023d 0f91 0abc d1df c03d e881 093e
000000e0: 6cd9 8ebc 2165 ea3c ec13 343d e6e6 fc3d
000000f0: adfb ec3c 8911 ad3d f0e5 7d3d 9985 91bd
00000100: 8503 1dbd f13e a2bd 6a9f 443e 49c9 cbbd
00000110: 9eb3 f1bd a0b4 12be e618 b9bd cbc8 ed3b
00000120: 342b 833d f599 423e ecde 6b3d fbd4 7ebe
00000130: 4d5e 403e 6c13 d2bd e66b 27be 9033 33be
00000140: d4c8 12be b15d 403c 5418 293b de0d 22be
00000150: a62a bc3d 8afd 343e ee3d b4bd a4e8 ba3d
00000160: 24f8 abbd be77 a23d ae5d 23be b204 0c3e
00000170: aa94 fb3a 773d ebbd 02d9 42be 146e 5a3e
00000180: ed08 48bd 79fb cd3d 1abb 87bd 39f8 4d3e
00000190: f7ac 0f3e 2c9d 2fbe c1b4 98bc 662c 2e3e
000001a0: 9ac2 dc3d f144 abbd 4707 393e 5fb9 933e
000001b0: eaf0 3d3e 49bd 303e 8f91 67bd 90e4 3f3e
0.11622462 0.11349638 0.0062589343 0.1273726 0.12809424 -0.045243647 -0.0626604 -0.03533607
-0.11078693 -0.0009051116 -0.07579555 -0.16522694 -0.1553808 0.16076481 0.0899724 -0.12570597
-0.14218295 0.004499126 -0.0106982915 -0.046884395 -0.010888394 -0.08810732 0.035449695 -0.023272675
-0.035713173 0.1808358 -0.02448256 -0.23735443 0.04021297 -0.02409613 0.18096702 0.11162735
-0.087223016 0.016587071 0.19486219 0.19135454 0.013848601 -0.16408813 0.12733233 0.06400665
-0.059136126 -0.07881085 -0.17621708 -0.05608202 -0.10683878 -0.061793614 0.074430965 0.19192375
-0.1104208 -0.06758016 0.11076393 -0.005899649 0.03174628 -0.008457436 0.094176896 0.13428462
-0.01743766 0.028612675 0.04396431 0.12348728 0.028928602 0.0845061 0.061986864 -0.0710556
-0.038333435 -0.07922161 0.19201437 -0.099505015 -0.118018374 -0.14326715 -0.09037952 0.0072566024
0.06404725 0.19004042 0.05758564 -0.24885933 0.18785973 -0.10257611 -0.16349754 -0.17500138
-0.14334422 0.011741088 0.0025801854 -0.15825602 0.09187822 0.17674842 -0.08800875 0.09126404
-0.083969384 0.07932995 -0.15953705 0.13673666 0.0019194086 -0.11486333 -0.19028094 0.21331054
-0.048836637 0.1005773 -0.06627484 0.2011422 0.14030825 -0.171498 -0.018640878 0.17009124
0.10779305 -0.08362759 0.18069182 0.28852364 0.18548933 0.17259707 -0.0565353 0.18739533

convolution_6 f4 [32, 1, 1, 16]
00000000: 27e6 4cbe 85c5 88bd a9ba b63e cff3 943d
00000010: d3da 5f3e 8c19 14be 5bcb 213e 01fc 3abe
00000020: dc27 6f3e 2d60 c2be ea15 c83a 9547 a03e
00000030: 5489 163c 52b9 7e3e 9a0f 3dbe 3676 333e
00000040: eb9e c13d e9c2 433e 96ba aa3c 79e7 13be
00000050: 353b 05be 6600 db3d 01f0 8dbd 9e7d 02be
00000060: 32d8 bfbd e2be fd3c f3a9 de3d c841 3dbd
00000070: 5d08 97bc 9de0 a53d 9b80 d5bc 4df8 16be
00000080: 0438 ae3c d51e 3ebd 62c9 eebd bd48 a93c
00000090: 0655 493e df6f 98bc 03a0 95be 3c7a de3d
000000a0: 2cce 423e 7ad8 603e 6f56 fdbd cc3e 19be
000000b0: 6946 833e 748f 08be b405 a1bd d03e ac3e
000000c0: ebee 5b3c 980a b93e cbf0 c83d 9a87 94bd
000000d0: f5fd febd f317 aabe d6eb a1bd 947a 6abd
000000e0: e072 38bd 8d46 f83e aad4 0b3f 3953 973e
000000f0: a9c1 153f 190a b5be 7b97 7f3f aac9 833e
00000100: 9f80 0cbe 6886 49be 2846 7e3e 660e f6bd
00000110: 47dd 8d3e 02b0 923d 30cd c43d 70a3 5e3e
00000120: c1ce b03e 3ddf 78be 0ca9 53bd 843f c63d
00000130: 0241 7cbe ddfb 8bbc 385c 5ebe 4665 c23d
00000140: a2d7 733e 234f 843e 202d b93c 4989 3a3e
00000150: 1b94 92be f592 cebe 3541 74be 3530 66be
00000160: 5d41 3bbe 5e44 68be 8137 8f3e 7b19 8e3e
00000170: 7c9e 1a3e d7e6 e6bc 141b 9ebd be83 9b3d
00000180: 0930 373e 2cad 163e 4565 1a3d e60a 17be
00000190: 56c5 183e 2a97 163e cf75 8e3c 7656 38be
000001a0: 1e40 6b3e 195e 533d 28c3 113e 2c99 9b3e
000001b0: b2b7 6cbe 42d5 023e 2d5a abbb 1280 143c
000001c0: d2d0 50bd 6a8a 28be e2d3 70be 6e45 1abd
000001d0: 9009 9ebd 604e 813e 0d79 9d3d 9bc3 12be
000001e0: 13f9 8b3d 1f20 c9bd 3f28 5abe dedd e53c
000001f0: 4962 c63d e5ba 52be 4aa7 0ebe 48a5 213e
00000200: e80f 1abb 949d 753c 2454 5bbe c69b 503d
00000210: 4824 893d 3860 94bd 8d22 ac3c a0f6 813d
00000220: cbb0 723c 79b8 623e f7f7 3cbe b1ed 16be
00000230: 5632 bfbe 005d d43d 06c6 75bd 1ea6 993c
00000240: 4dde e5bc 51fe ff3d 722a 3dbe a169 04bd
00000250: d4ca 3bbe 4cc2 a33c 478b 193b 5657 113e
00000260: 4511 043e 94ca a5bd c369 28be 96f0 3d3e
00000270: 77a0 d3bd b409 833e 614a 963c d138 f63d
00000280: d135 d43d 4427 583d b740 a9bd 87f8 07bc
00000290: d47c 25be 8fa2 353d 11f5 133e 3143 77be
000002a0: f32b 1fbe 64ef 923c 6e6e 88bd 3b67 bc3d
000002b0: a071 f6bd c639 8bbe 9fe6 eb3d 2120 a9be
000002c0: 4bb6 553d 311d f13c 0fe8 513e b04e 4cbe
000002d0: 8cf0 21bc bf28 d6bd 9d0b eebd 70a9 6ebd
000002e0: a397 d1bd 0e66 aa3d 3c14 b03d a386 acbd
000002f0: b0cf 6dbd 33d3 3e3e 9486 073e 102c 3abe
00000300: 1ff1 ec3d fea3 a43d b285 673c 8c92 8e3d
00000310: 190f 143e 283e 593d b4c0 18be 3eab 43be
00000320: 105d 84be 909a d23d 263b 653e 64fc 99bd
00000330: 49ec 94bd 1fc2 5c3e 21b2 30be c6ec b63d
00000340: d80e 333d 64ea f8bd 3de6 5fbd 9909 83bd
00000350: 5fb2 2a3c ebea dbbd 01cc 533e e2aa debc
00000360: 38c8 1e3e 161d bebe 4be2 96be 8f02 c33e
00000370: 8b19 57be 7e4b 873e 4c2e 9cbe ea7f 4a3d
00000380: 0b23 8a3e bf0f 74be d0e8 52be 302a 483d
00000390: 7e7a 30bd 1ab6 13be 0fd8 123e 8a83 bb3d
000003a0: 619b c53d 5e90 4abe d9e5 2bbe e596 463e
000003b0: 141a 5c3e 2b80 8b3e 9130 32be b6c5 12bc
000003c0: 3781 ea3c 6939 fabb 0103 24be 454d d43c
000003d0: eae0 e2bd f7a1 2d3e 2a3d 4dbe ddd4 26be
000003e0: 0d78 773e 732f 18bd 1e44 1d3e b488 b23d
000003f0: 191d 19be 1939 6ebe 44f0 08bd 0795 743e
-0.20009671 -0.06678299 0.35689285 0.07273065 0.21860819 -0.1446287 0.1580023 -0.18260194
0.23355049 -0.37964 0.001526532 0.31304613 0.009188015 0.24875382 -0.18462983 0.17525563
0.09454139 0.19117321 0.020840924 -0.14443769 -0.13010867 0.10693435 -0.06930543 -0.12743232
-0.09367408 0.03097481 0.10872259 -0.046205312 -0.018436605 0.08099482 -0.0260623 -0.14743157
0.021266945 -0.046416122 -0.116595045 0.020664567 0.1966134 -0.018608032 -0.29223642 0.10863158
0.19023961 0.2195758 -0.123700015 -0.14965361 0.25639656 -0.13335973 -0.07862416 0.33641672
0.013423662 0.36140895 0.098115526 -0.072524264 -0.12450782 -0.33221397 -0.0790631 -0.057245806
-0.04503143 0.48491326 0.54621375 0.2955568 0.58498627 -0.35359266 0.99840516 0.25739795
-0.1372094 -0.19680178 0.2483145 -0.12014465 0.27707884 0.07162477 0.09609449 0.21742034
0.3453274 -0.24303909 -0.051674888 0.096800834 -0.24634174 -0.017087871 -0.21714866 0.094919726
0.23812726 0.25841627 0.022604525 0.18216433 -0.2862862 -0.40346494 -0.23853 -0.22479327
-0.18286653 -0.2268233 0.27972034 0.27753815 0.1509952 -0.028186245 -0.077200085 0.07593487
0.17889418 0.14714497 0.037694234 -0.14750251 0.14919028 0.14706102 0.01739016 -0.18001732
0.22973678 0.05160341 0.14234602 0.30390298 -0.23116949 0.12776664 -0.0052292557 0.0090637375
-0.050980397 -0.16459051 -0.23518327 -0.03766387 -0.07716668 0.25255108 0.07689104 -0.1433243
0.068346165 -0.0982058 -0.21304415 0.028059896 0.09686715 -0.20579107 -0.13931003 0.15785706
-0.0023508016 0.014991183 -0.21418816 0.050929807 0.06696373 -0.07244915 0.021012569 0.06345868
0.014812659 0.22140683 -0.18453966 -0.1473911 -0.3734309 0.10369301 -0.060003303 0.018755969
-0.028060103 0.12499679 -0.18473223 -0.032327298 -0.18339092 0.019990109 0.0023428963 0.14193472
0.12897213 -0.08095279 -0.16446595 0.18548808 -0.103333406 0.2559334 0.018346014 0.120225556
0.10361827 0.05277182 -0.082642965 -0.008299 -0.161609 0.04434448 0.14448954 -0.24146725
-0.15544109 0.017936416 -0.06661688 0.09199377 -0.12033391 -0.27192515 0.11518597 -0.33032325
0.0521758 0.029432865 0.2049868 -0.19951892 -0.009884011 -0.104569905 -0.11623309 -0.058267057
-0.102340005 0.08320247 0.085976094 -0.084241174 -0.058059394 0.18635254 0.13234931 -0.18180871
0.11569428 0.080390915 0.014130997 0.06961545 0.14458884 0.053037792 -0.1491726 -0.19108292
-0.2585225 0.10283387 0.22385845 -0.07518843 -0.0727163 0.21558426 -0.17255451 0.0893188
0.043715328 -0.121540815 -0.05466293 -0.06398315 0.010418504 -0.107381664 0.2068329 -0.027181093
0.15506065 -0.37131566 -0.29469523 0.3808789 -0.21005838 0.26424783 -0.30504072 0.049438395
0.2697986 -0.23834132 -0.20596623 0.048868358 -0.043085568 -0.14424935 0.14340232 0.091559485
0.09648777 -0.19781634 -0.16786899 0.19393499 0.21494323 0.27246222 -0.17401339 -0.008958271
0.028626068 -0.0076362384 -0.16016771 0.025915751 -0.11078055 0.16956316 -0.20042863 -0.16292138
0.2416689 -0.037154626 0.15358016 0.0871748 -0.14952506 -0.23263969 -0.03343226 0.23884974

convolution_10 f4 [4, 1, 9, 4]
00000000: 7a70 cc3d 4176 113c 1376 4fbe 1d50 78bd
00000010: 2237 1d3e 8ecf 87be 0fcb b6bc be1a aebd
00000020: c410 b23d 81a2 c3bc 34e9 bfbc 8594 71bd
00000030: 530f ac3d bae8 05be 14a2 b0bd 14e0 26bd
00000040: a564 a73d d427 24be 7fc4 0ebd b64f 28be
00000050: cb27 e23d a672 02be cc9d dc3d e061 b4bd
00000060: ae16 ae3d 84f9 86be b06a 0fbe ec7d e13d
00000070: 18fe 263e b73b 2bbe 7a6f 9d3c 0bcc ccbd
00000080: edf3 523d db96 9dbe e40e 37be a478 283d
00000090: d1b7 eebb 6432 2fbc 4e0b db3b e38a 053e
000000a0: 7075 073e 7b3c 0cbc 289f 53bd d040 6b3d
000000b0: ab60 a4bd b3da 8abe 348f 3cbe 8277 f23c
000000c0: 96b4 cfbd 53a5 5cbe 9414 883d 72f2 853d
000000d0: 0885 fa3d 1d59 56be d3c8 37be d8c6 2cbe
000000e0: 13e2 d2bd c6e1 6cbe 7857 f0bd 2c59 ee3d
000000f0: e2cc ebbc 37f5 4ebe de8d 8abd d1aa a33d
00000100: 87e1 913b 2ee0 3dbe 535c 3fbe 3d86 97bd
00000110: 8a7f eebd 5ba6 a2be 4f64 f33c d8f0 e2bd
00000120: 4494 893d 186a a23e eb82 12be 9469 cabd
00000130: d40a 3b3d da07 563e 7c36 87bd 0cab 0e3e
00000140: ee1b 3cbe cdb8 ab3c 0cd9 1dbe d741 003e
00000150: 699a b4bd 9869 563e ac68 3f3d b4a4 ca3c
00000160: 136d 0ebd 15a0 9b3d 6126 163e 3c8a 203c
00000170: 1804 b43c 7417 4a3e b31b 0cbd c9ae 0dbe
00000180: 34c2 a83d 2db0 c93d 4b0f bc3d 26e9 68bd
00000190: 7488 4abe c79b 413e 4619 ce3b c1a6 a6bc
000001a0: 9e69 9c3d c779 d33d 6aad 873d 836a 09be
000001b0: 0434 433e d20a 89be bab0 d9bb 9468 ab3c
000001c0: 9f97 413e c122 05be 9a14 a7bd 39ad 61bd
000001d0: 9148 40bc 2b1f e3bd ef76 f5bd 424b d83d
000001e0: ba41 d83d f685 49be e620 e2bd d7fb 73bd
000001f0: 8fb5 063e d35f 9fbe d933 23be 300c 363d
00000200: d7d3 1d3d f62c b9be 05f9 ed3c b9ec 01bd
00000210: 62f1 093d 201a 38be eb79 dcbd 3885 0fbe
00000220: 0d3c a03b 4901 0cbe 6d28 adbd 8481 263d
00000230: 4b68 b8bd 6934 80be 3f5a 13be 26e2 0f3e
0.09982391 0.008878292 -0.20259885 -0.060623277 0.15353063 -0.2652554 -0.022313623 -0.085011944
0.08694604 -0.023881199 -0.02342663 -0.05897953 0.0840136 -0.1307706 -0.08624664 -0.04074104
0.08173493 -0.16030818 -0.034855362 -0.16436657 0.11042746 -0.12739047 0.10772285 -0.08807731
0.085004196 -0.2636224 -0.14005542 0.11010346 0.16307867 -0.16721998 0.019218195 -0.099998556
0.051502157 -0.30779156 -0.17876774 0.041130677 -0.007285096 -0.010693166 0.0066846972 0.13041262
0.13228393 -0.008559342 -0.051665455 0.057434857 -0.080262505 -0.2711998 -0.18414003 0.029598001
-0.10141866 -0.21547441 0.0664455 0.065403834 0.12232405 -0.20932432 -0.17947702 -0.16872728
-0.102970265 -0.23133 -0.11735433 0.11638102 -0.02878422 -0.2021073 -0.0676534 0.07991565
0.004451934 -0.18542549 -0.18687563 -0.07398651 -0.1164542 -0.31767544 0.029710917 -0.110810935
0.067177325 0.31721568 -0.14307754 -0.09883419 0.045664623 0.20901433 -0.06602189 0.13932437
-0.1837003 0.020962143 -0.15414828 0.12525116 -0.08818514 0.20938718 0.046730682 0.02473674
-0.03477199 0.075988926 0.14663078 0.009798583 0.021974608 0.19735509 -0.034206104 -0.13836206
0.08240166 0.09848056 0.091826044 -0.056862973 -0.19778615 0.1890708 0.006289634 -0.020343186
0.076373324 0.103259616 0.06624873 -0.13419537 0.19062811 -0.26766068 -0.006643382 0.02092389
0.18905495 -0.13001539 -0.08158226 -0.05509684 -0.011736051 -0.11089929 -0.119855754 0.10561229
0.10559411 -0.19680008 -0.11041431 -0.059566345 0.13155197 -0.31127796 -0.15937747 0.044445217
0.038532104 -0.36167115 0.029049406 -0.031719897 0.033677466 -0.17978716 -0.107654415 -0.14015663
0.004889971 -0.13672365 -0.08454976 0.04065086 -0.09004267 -0.25039986 -0.14389895 0.14051113

convolution_11 f4 [4, 1, 9, 4]
00000000: cc80 5a3e 8feb ae3e f767 cb3e b868 563d
00000010: b1bb 753d 04bb ecbc b593 0d3e 83f7 d83d
00000020: 4fa8 b03e 18d8 893e 7277 7b3e add9 1cbd
00000030: 4d91 1b3e 98d2 323d 55a3 f33d 1bda 60bd
00000040: 7d66 af3d e203 9a3d 66df 31bc eb95 7c3d
00000050: abb9 8d3e f7ed 04bd 3456 c83c 8174 e6bd
00000060: 1db9 4c3e e394 cf3d eea6 8a3d 565c 963c
00000070: fcf0 a63e abc4 3b3d 50d2 a13c 5afe 9e3d
00000080: a395 223e a5aa fd3c 18a9 cabc b6bf 813e
00000090: 00b5 1fbd ef38 a83e 6a43 ba3e 5a3a bebc
000000a0: b436 08be 104b f43c f610 393e 577b 883c
000000b0: 3a07 f1bd 5d97 8f3e d350 853c f90b 1cbd
000000c0: e4d9 a4bd 27d1 33bd 3609 1e3e b191 da3d
000000d0: 8981 283d 05a8 5f3e 9aec 2f3e 499e 083e
000000e0: 230b 86bd e594 4dbd 568a 033e 73da 283e
000000f0: 614a a7bd 7f99 c2bc 5939 8f3c b34f 0abd
00000100: 9fc4 0e3d 29a9 0c3e 3b21 e4bc a535 513e
00000110: ae74 81ba acf8 1b3e 9517 2d3e a4da 103d
00000120: b652 4bbe baf1 9a3e d012 793e 3981 853d
00000130: bd5a 5cbe 5918 003e 55e1 3bb9 5e66 ec3c
00000140: babc 79be f31e 313d 9a82 0e3e f096 6dbd
00000150: a4ec 0fbe cf08 3a3d c300 903d 017e fc3d
00000160: f386 7cbe f689 82bc e4ad 033e 5371 643d
00000170: 38b2 1fbd 5395 1b3e 14ee 0a3e a334 4d3d
00000180: 6d57 dabd 9745 bd3d ad51 ba3b d378 c6bd
00000190: c3a3 c3be cd96 ee3d 5e87 f03d 1a49 bdbd
000001a0: ef34 06be 9458 94bd b239 c5bd 32bd eb3d
000001b0: 9d8e 353e f361 81be 57fc b2be 8055 a1bd
000001c0: eee4 5b3e 868b 15be 2954 19be 7083 2e3e
000001d0: 2ca2 663e 7346 34bd 1c2d 88be 9c95 533d
000001e0: 0693 5f3e 238d 89bc 6082 23be 8591 123e
000001f0: 7a3b c23d 18cc 693d 56a7 81bb 2542 d0bd
00000200: 0da1 8b3e cc9c 543d 262c af3d 55c8 74bd
00000210: 8224 903e d449 99bb 1814 f6bd cc9f 3f3d
00000220: 9786 363e 3ded a13d e8ce 31be 1573 dcbc
00000230: 408d 873e 04cb acbd 2502 b23d 16fb 5cbe
0.21338195 0.34164092 0.39727756 0.05234596 0.05999345 -0.02889777 0.13825877 0.10594084
0.3450341 0.2692268 0.24557284 -0.03829353 0.15192147 0.04365787 0.118963875 -0.0548955
0.0856447 0.07520272 -0.010856485 0.06166641 0.27680716 -0.032453503 0.024455167 -0.1125269
0.1999249 0.1013582 0.067701206 0.018354576 0.3260573 0.045841854 0.019753605 0.077633575
0.15877394 0.030965159 -0.024738833 0.25341576 -0.038990974 0.32855937 0.36379558 -0.023221184
-0.13302118 0.029820949 0.18072876 0.016660376 -0.117689565 0.2804517 0.016273892 -0.038097356
-0.08049372 -0.043900635 0.15433201 0.1067232 0.04113916 0.21841438 0.171801 0.13341631
-0.06545093 -0.050190825 0.1284574 0.16489582 -0.081684835 -0.023754833 0.0174834 -0.033767413
0.03485548 0.13736404 -0.027847877 0.2043062 -0.0009876692 0.1523158 0.16903527 0.035364762
-0.1985577 0.30262548 0.24323583 0.06518788 -0.21518989 0.12509288 -0.00017917652 0.028857406
-0.243884 0.043242406 0.13917008 -0.058005273 -0.14055115 0.045418557 0.07031395 0.12328721
-0.24660854 -0.015934926 0.12859303 0.055772137 -0.038988322 0.15193681 0.13567382 0.050099026
-0.106612064 0.09241789 0.005686006 -0.09691014 -0.38210878 0.11649857 0.11744569 -0.09242459
-0.1310613 -0.072434574 -0.09630145 0.115106955 0.17730184 -0.25270042 -0.34958145 -0.07877636
0.21474048 -0.14604005 -0.14973511 0.17042327 0.22522801 -0.044012498 -0.26596916 0.05165635
0.21833429 -0.016790932 -0.15967703 0.14313324 0.094840005 0.057079405 -0.0039567156 -0.10168866
0.2727131 0.051907346 0.085533425 -0.059761364 0.28152853 -0.0046779905 -0.12015551 0.046783254
0.1782478 0.07906578 -0.17364085 -0.026910344 0.26474953 -0.0843716 0.08691815 -0.21580157

convolution_12 f4 [4, 1, 9, 4]
00000000: 272f 143e 131e eebd bf12 f8bd 0063 993e
00000010: 4374 3ebe 5570 a5be bc00 06bd 92f4 7abc
00000020: b2df f6bd 19d4 aabe c8eb 3c3d 982d f5bc
00000030: 365b fbbd 6479 9fbe aa2f b3bc a715 da3d
00000040: f229 46be 2f1b b3be 4d02 5ebe 2292 15bc
00000050: ee9f 543d c97c a4be 2c0c 8b3d d69b bb3d
00000060: 27b5 a93d a4f3 4abe 7f05 21be f162 25be
00000070: f250 08be 14fe c8bd c6da 02bd 9704 e6bd
00000080: 75df 8bbe 607a cebe fdd6 0a3d c14a 27be
00000090: 9fb8 d03d 284d 93be a9ab f1bd a424 1d3e
000000a0: d59c 32bd f22a a6be 6666 253e c5d2 1f3e
000000b0: 08ab be3d 227c d8bd 11d7 863c 12b1 7b3d
000000c0: 762b 9fbd 305f 43be b543 183d 67e1 df3d
000000d0: bea8 f6bd a40e 4dbe de99 bbbd 56d8 99bd
000000e0: 454b e5bd 57f0 b7bd ab37 cebd 26e8 973d
000000f0: ec25 923d a484 76be ec92 20bd 8614 d93d
00000100: 5cc0 33be 9637 5abe e5b9 efbd c315 d8bd
00000110: 13a9 a0bd c74f 6fbe 0e22 29be 88fa 7d3d
00000120: 8ba0 7d3d 8ff3 7c3d 40f5 a6bc 7de7 ff3d
00000130: d091 9c3b d009 0d3d af98 dfbd a6d3 433e
00000140: e058 6b3d 0064 f23d a026 84bd af6d cfbc
00000150: ef81 ef3d 0142 173e 4f5d edbd b49c a43c
00000160: 7f2c e63d 726f 903d 2d1d 9b3d 9d4e 853c
00000170: 23e8 d73c 918d 8b3e 5ec7 e0bc 3aeb 7c3d
00000180: b382 283e 6087 163e 0928 ea3d 8624 1a3e
00000190: 5e59 4ebd fd59 3e3e 0b89 82bd 4466 dd3c
000001a0: d5b1 a93d 7b14 993e 5284 ffbd 8a1d 683c
000001b0: b0ed 2d3b 91c3 e43d cd14 0abc f694 4cbe
000001c0: f0e0 463c 65b2 b53e 13bf 083e d234 8cbd
000001d0: 7d37 bfbc 5c0e 323e d56b d03d d241 d03c
000001e0: 8979 8dbd 5531 233e d781 1b3d 1daf 35be
000001f0: 0c10 813d 8157 863e e2dc 3a3e 6ddc 80be
00000200: 2f12 1d3e a454 333e 20d8 9d3d 6992 06be
00000210: e870 653d ea18 b13e af27 e9bd 727c 85bb
00000220: 4d83 9b3d 29ab 263e 47a6 b6bc 59c8 153d
00000230: dfc1 013e 4c9f 113e 7053 f33c 6dc8 fcbd
0.14471112 -0.1162683 -0.121129505 0.29958344 -0.18599038 -0.32312265 -0.032715544 -0.015317099
-0.12054385 -0.33364943 0.046123296 -0.029928967 -0.122732565 -0.311473 -0.021873314 0.10648661
-0.19351938 -0.34981677 -0.21680565 -0.009129079 0.051910333 -0.32126454 0.06789431 0.09160583
0.08286505 -0.19819504 -0.15724753 -0.16151024 -0.13312128 -0.098140866 -0.03194692 -0.11231344
-0.27318922 -0.4032774 0.033896435 -0.1633711 0.10191464 -0.28769803 -0.1180032 0.15346009
-0.043606598 -0.3245464 0.16152343 0.15607746 0.09309965 -0.105705515 0.016459974 0.061448164
-0.077719614 -0.1907928 0.037173945 0.10931664 -0.12043904 -0.20025116 -0.09160207 -0.07511966
-0.11195997 -0.08981388 -0.100692116 0.07417326 0.07136139 -0.24074036 -0.039202616 0.10599618
-0.17553848 -0.21310267 -0.117053784 -0.10551026 -0.07844748 -0.23370276 -0.16516897 0.062006503
0.061920684 0.061755713 -0.020380616 0.12495325 0.0047781244 0.034433186 -0.10917794 0.19123706
0.057457805 0.1183548 -0.0645268 -0.025320856 0.11694705 0.14771272 -0.11590063 0.020094253
0.11238956 0.070525065 0.07573924 0.016272837 0.026355809 0.27256444 -0.027438816 0.061747767
0.16456108 0.14700079 0.11433417 0.15052995 -0.050378196 0.18589015 -0.06373795 0.027026303
0.08285872 0.29898438 -0.1247641 0.014167199 0.0026539378 0.11170114 -0.008427811 -0.19978699
0.01213859 0.35487667 0.13354139 -0.06846012 -0.023341889 0.1738829 0.10176817 0.02542201
-0.069079466 0.15936787 0.03796562 -0.17742582 0.06301889 0.26238635 0.18248323 -0.25168172
0.15338968 0.17512757 0.07707238 -0.13141789 0.05601588 0.3458932 -0.11384522 -0.004073673
0.07593403 0.1627623 -0.022296084 0.03656802 0.12671612 0.14220923 0.029702872 -0.12342916

convolution_13 f4 [4, 1, 9, 4]
00000000: 5a23 453e 2310 f43d d19a 343e 123a 74bc
00000010: 0355 b23c 0fd1 06be da86 433e 646d f03d
00000020: 47c5 693e 24f1 09be 9083 2a3e 79db 793d
00000030: dbdc 393e de27 273d fb2f 1e3e 7685 233e
00000040: 8f79 e93d 39e5 ac3d f4c4 003e 4967 723d
00000050: 6e4f 533e 1906 5bbc 7cdc 763e 8334 0e3e
00000060: d5dd ef3d 54d7 d93d 266b a53d bc67 503d
00000070: c0f5 1ebc 21e8 aabd 51df c03d fc25 b63d
00000080: 88f1 6e3e c3a9 2ebe 685c b03e 8ca7 5b3e
00000090: 8d9b e23e 3959 303e 2b5c 903e 521d 31bc
000000a0: ad13 343e 5958 6ebd 5ae8 de3d 4118 a4bd
000000b0: 24e2 653e ed91 2f3d cdd1 0a3e d1da e23d
000000c0: aae4 1c3e 9c90 d2bd 6764 afbc 20a1 c13d
000000d0: 3759 8e3c a727 34be d907 cc3d c018 e83d
000000e0: e6d0 d13d 969a 183d a20b c6bd f8da 433d
000000f0: 1130 1b3e daa9 3cbe ff65 e23d 76d6 5c3d
00000100: 8b0b 773e dbf4 56be 6334 213d efe9 1dbe
00000110: a121 b63d e365 0dbc 673c 8c3d 5a10 6ebc
00000120: 239b cbbe 48bb 9fbd 93d7 3abd 0e27 fdbd
00000130: 7138 5fbe ce81 6a3d 525e 0abe 8172 b13c
00000140: 0a9e 19be 3e69 0c3e e2f8 2abe fac8 ef3d
00000150: 539a a0be 2d9c 6dbc 3fcd 33be 2a77 4cbd
00000160: 9cd8 0bbe 6043 99bb 6e9c 89bc 2e9f c7bc
00000170: 760b 90be 8888 053e 2cad 513d 542d ea3d
00000180: c45f dfbd 4f32 c23c 9b83 28be c760 4c3d
00000190: 7595 e6bd 40b9 373e 82dd 04be 93a4 cd3c
000001a0: 28ac a3be ed95 7f3e 0e86 533d b9ed c3bd
000001b0: 65fe e43e f1bd 023e 6220 203e e8cb f03c
000001c0: 7a76 e93d bac0 513b ef71 2ebd 19be 9d3b
000001d0: 7c2f 553e aff4 ef3d 5ac8 5d3e 1143 a0bd
000001e0: 16e4 ce3e dcfa bebd edce 133e 238f c4bd
000001f0: 1717 bd3e 340f e2bd 6689 03bd 0acd 74bd
00000200: 99da b9bd a7f8 9ebd 36a9 9a3d 4627 10be
00000210: da62 1f3e bc56 02be 81b5 5f3e c479 e3bd
00000220: 91b4 913e 4b09 05be d99b 773d 07d7 93bd
00000230: 4d75 8a3e 46fd 09be 1438 b33b 495a eebd
0.19251767 0.1191714 0.17637183 -0.014906423 0.021769052 -0.13165687 0.1909441 0.117396146
0.22829162 -0.13470894 0.1665175 0.06100032 0.18150656 0.040809505 0.1544799 0.1596888
0.114001386 0.08442158 0.12575132 0.05918053 0.20635769 -0.013368153 0.24107546 0.13887219
0.11712233 0.10636774 0.080770776 0.05088018 -0.009702146 -0.08345056 0.09417594 0.08893964
0.23334324 -0.17056946 0.344455 0.21450633 0.442593 0.17221536 0.2819532 -0.010810213
0.1758563 -0.058189724 0.10884161 -0.080124386 0.22449547 0.042863775 0.13556595 0.11076892
0.15321603 -0.10281488 -0.02141018 0.0945456 0.017376525 -0.17593251 0.09962434 0.11332846
0.10244922 0.0372568 -0.096701875 0.047816247 0.15155055 -0.18424168 0.110546105 0.053915463
0.24125497 -0.20991842 0.0393566 -0.1542127 0.08893133 -0.008630249 0.06847458 -0.014530266
-0.39766797 -0.07799393 -0.045615744 -0.12360965 -0.21798874 0.057252698 -0.13512543 0.021661045
-0.15001693 0.13712022 -0.16696504 0.11708255 -0.3136774 -0.014502567 -0.17558764 -0.04991833
-0.13656849 -0.004677221 -0.016798224 -0.024367895 -0.28133744 0.13040364 0.05119054 0.11434427
-0.10906938 0.02370563 -0.16456454 0.04989698 -0.112589754 0.17941761 -0.12975124 0.02510289
-0.31967282 0.24959536 0.051641516 -0.095668264 0.44725338 0.1276777 0.15637353 0.029394105
0.11399551 0.0032005743 -0.042589124 0.004813921 0.20818895 0.117165916 0.2165846 -0.07825292
0.4040839 -0.093251914 0.14434405 -0.09597614 0.3693168 -0.11038056 -0.032113455 -0.059765853
-0.09074897 -0.077622704 0.07551806 -0.14077482 0.15565053 -0.12728399 0.21846582 -0.11107209
0.28458074 -0.12991826 0.060451362 -0.072187476 0.27042618 -0.13475522 0.0054693315 -0.11638314
